ppo_critic.pth (torch, 645732 bytes, 7 tensors)

fc1.weight f4 [512, 24]
-0.41328317 -2.2537258 -0.8507761 1.0312567 -0.56760544 0.029959386 -0.16432498 -0.024303976
-0.1970574 -1.1400524 0.015121642 0.70320976 -0.038228996 -0.054634783 0.40829375 0.38765624
0.23760545 0.21196593 0.32151607 0.23630123 0.058988962 0.2901458 0.28468764 0.17567463
-0.56105924 -1.8349422 0.19833204 0.15445009 -0.25077513 -0.20386088 -0.06923991 -0.059541702
-0.31590557 -1.1927274 0.03094926 -0.4364458 0.003012838 0.113636345 -0.043766595 0.009884091
-0.07220431 -0.06249104 0.06583861 0.03451801 0.16370754 -0.07811943 -0.11354188 -0.1574042
-0.010226306 0.17240696 -0.011716803 -0.016603088 0.08460928 0.018823458 -0.11626336 -0.015202444
0.0009663304 -0.18715248 0.07247091 -0.043661702 0.042769782 -0.19133131 -0.07839296 -0.32006028
-0.12805109 -0.3366216 0.025776478 -0.06802409 0.05043273 -0.2378204 -0.11241558 -0.14576748
-0.29885122 -0.067361735 -0.11903451 -0.24408819 -0.016618269 -0.20324665 -0.26533827 -0.06741358
-0.14485683 -0.70363784 -0.2689204 0.012217391 -0.061647266 -0.34593186 -0.3007142 -0.0755643
0.014502705 0.070115365 -0.0048411274 -0.04475021 -0.19437325 0.02893576 0.075123295 -0.14603812
0.2648873 1.4277543 -0.3846721 0.4535696 -0.19164766 -0.20965502 -0.33384436 -0.07436918
-0.25783083 -0.06984589 -0.011741847 -0.38400155 -0.32685587 -0.030407324 -0.1072221 -0.19406444
-0.26974106 -0.122388594 -0.15342219 -0.20843056 -0.058777954 -0.11150346 -0.26271647 -0.39040244
0.2893805 0.8370994 -1.6072965 -0.37637097 -0.20475085 0.02162542 -0.14876032 0.36455387
-0.028917657 0.201057 0.08199029 -0.18546817 -0.0096154185 0.019518927 -0.24706149 -0.14695886
-0.40969902 -0.27024382 -0.2840352 -0.25444534 -0.22354814 -0.3912679 -0.5264801 -0.29871598
0.27640718 -0.85989434 -0.2744367 -0.97777545 -0.3366203 -0.1021985 -0.27113408 0.1549331
0.18718037 -1.1194512 0.19560066 -0.64852226 -0.006305673 0.4381993 -0.061918505 -0.15961713
0.028819516 0.11191043 -0.05030067 0.012820529 -0.11104456 -0.17699985 0.12426935 -0.023111857
0.18647054 0.097579114 -0.3026966 -0.08874601 0.21012968 0.08878222 -0.033950564 0.058479995
-0.07814583 -0.38632357 0.081170365 -0.038623024 0.09033548 -0.1709734 -0.05110546 -0.28992245
-0.09664206 -0.073291816 -0.03118361 -0.19643088 0.03684504 -0.250985 -0.23413257 -0.053625103
-1.2051805 -2.3049881 0.5900525 -0.080463886 0.17524861 -0.12034178 0.08019489 -0.07801764
0.0059970473 -0.4331653 -0.024959719 -0.60718054 -0.062838405 0.034582168 0.30857068 0.26720178
0.1378292 -0.0043724407 -0.038166415 -0.23695299 -0.09480321 -0.09740256 -0.25350544 -0.0530773
0.026977506 -0.44999266 0.3073821 -0.009858421 -0.28591707 -0.009346243 -0.31714222 0.07478653
-0.33698684 -0.2140187 -0.12591301 -0.06961547 0.18754242 -0.33314636 -0.41943458 -0.46785936
-0.18696246 -0.53727794 -0.3670024 -0.3254069 -0.14269696 -0.3754285 -0.3730866 -0.2689564
-1.4459192 -2.754097 0.70614654 0.12360218 0.50510746 -0.07183397 0.2054415 -0.05931825
0.14059742 -0.03241926 -0.15792668 -0.42204908 -0.109639704 -0.13503833 0.15815836 -0.12456956
00000000: da99 d3be 0b3d 10c0 76cc 59bf 3800 843f
00000010: 974e 11bf 636d f53c cf44 28be 2219 c7bc
00000020: 6ac9 49be 3ded 91bf c3c0 773c 8e05 343f
00000030: 0296 1cbd b9c8 5fbd e10b d13e e17a c63e
00000040: d84e 733e 990d 593e c19d a43e f3f8 713e
00000050: 699e 713d fe8d 943e 94c2 913e 0de4 333e
00000060: 94a1 0fbf 63df eabf 8e17 4b3e 2a28 1e3e
00000070: 9965 80be e8c0 50be a7cd 8dbd 00e2 73bd
00000080: 60be a1be 4bab 98bf 4d89 fd3c d375 dfbe
00000090: 0973 453b 2cba e83d 9a44 33bd e2f0 213c
000000a0: dadf 93bd 9bf6 7fbd 65d6 863d c262 0d3d
000000b0: f3a2 273e 14fd 9fbd a588 e8bd 912e 21be
000000c0: 3c8c 27bc 738b 303e d5f7 3fbc 3303 88bc
000000d0: a147 ad3d a733 9a3c 7c1b eebd ac13 79bc
000000e0: 5651 7d3a e6a4 3fbe a16b 943d 9dd6 32bd
000000f0: 5e2f 2f3d 5bec 43be 7d8c a0bd f1de a3be
00000100: d31f 03be ab59 acbe 3129 d33c 3750 8bbd
00000110: 8d92 4e3d 3187 73be 243a e6bd 1244 15be
00000120: 0703 99be f3f4 89bd 5dc8 f3bd 41f2 79be
00000130: 0923 88bc e41f 50be 6bda 87be 2210 8abd
00000140: 5955 14be 9c21 34bf efaf 89be 742b 483c
00000150: d881 7cbd fb1d b1be 36f7 99be 75c1 9abd
00000160: c19c 6d3c a598 8f3d 52a2 9ebb ff4b 37bd
00000170: c809 47be b00a ed3c 3eda 993d 048b 15be
00000180: 4f9f 873e a7c0 b63f bef3 c4be 463a e83e
00000190: 493f 44be ceaf 56be a6ed aabe de4e 98bd
000001a0: 6702 84be 5d0b 8fbd e060 40bc da9b c4be
000001b0: a759 a7be c818 f9bc 4397 dbbd d4b8 46be
000001c0: 801b 8abe dfa6 fabd b51a 1dbe d26e 55be
000001d0: 27c1 70bd ed5b e4bd c682 86be d4e2 c7be
000001e0: ae29 943e 254c 563f e4bb cdbf b2b3 c0be
000001f0: 35aa 51be cb27 b13c a054 18be cea6 ba3e
00000200: b9e4 ecbc e3e1 4d3e 86ea a73d 5eeb 3dbe
00000210: fd89 1dbc 28e6 9f3c b0fd 7cbe 627c 16be
00000220: 12c4 d1be 665d 8abe 106d 91be a946 82be
00000230: cee9 64be 4454 c8be 66c7 06bf 4df1 98be
00000240: 3e85 8d3e 0922 5cbf f882 8cbe 7e4f 7abf
00000250: 7f59 acbe 724d d1bd 16d2 8abe c8a6 1e3e
00000260: 36ac 3f3e 2d4a 8fbf 8a4b 483e 8e05 26bf
00000270: d29f cebb a95b e03e 429e 7dbd ac72 23be
00000280: e816 ec3c 4c31 e53d 1308 4ebd 320d 523c
00000290: 556b e3bd 733f 35be ee80 fe3d 1455 bdbc
000002a0: 22f2 3e3e 8fd7 c73d 0cfb 9abe 78c0 b5bd
000002b0: 3c2c 573e 74d3 b53d bf0f 0bbd b888 6f3d
000002c0: ec0a a0bd 34cc c5be a63c a63d 2d33 1ebd
000002d0: cf01 b93d a713 2fbe f553 51bd b770 94be
000002e0: 46ec c5bd 051a 96bd c574 ffbc 2d25 49be
000002f0: d3ea 163d 1b81 80be 73c0 6fbe ffa5 5bbd
00000300: 5b43 9abf ed84 13c0 ae0d 173f 40ca a4bd
00000310: 5f74 333e c075 f6bd 383d a43d b6c7 9fbd
00000320: e182 c43b d8c7 ddbe 5378 ccbc 2f70 1bbf
00000330: 6cb1 80bd 08a6 0d3d fafc 9d3e acce 883e
00000340: 1923 0d3e b146 8fbb 6354 1cbd cea3 72be
00000350: 2f28 c2bd fe7a c7bd 77cb 81be 9567 59bd
00000360: eeff dc3c 7065 e6be 3061 9d3e 3785 21bc
00000370: b963 92be fc20 19bc 7760 a2be ae29 993d
00000380: 8a89 acbe b827 5bbe 57ef 00be 8e92 8ebd
00000390: 1f0b 403e 2992 aabe 21c0 d6be 438b efbe
000003a0: 1673 3fbe 0c8b 09bf bde7 bbbe bc9b a6be
000003b0: 271f 12be 2a38 c0be 3505 bfbe a7b4 89be
000003c0: e113 b9bf 2043 30c0 05c6 343f 2423 fd3d
000003d0: b94e 013f b01d 93bd 425f 523e b1f7 72bd
000003e0: c5f8 0f3e 0fca 04bd 88b7 21be d116 d8be
000003f0: c88a e0bd 7d47 0abe 44f4 213e 531e ffbd

fc1.bias f4 [512]
0.007508081 0.019533217 0.012437056 -0.20991874 -0.1108162 -0.30917352 0.12187301 -0.29619384
-0.1543032 -0.04838843 -0.23868178 -0.0966364 -0.39411554 -0.23411006 -0.028741183 -0.11966115
-0.10970777 -0.26466712 0.023474647 -0.22961606 -0.2822462 -0.24581686 -0.18051702 -0.47967473
-0.38021415 -0.35158554 -0.3758253 -0.15185833 -0.14368886 -0.11061148 0.051568743 -0.12196522
-0.10651158 -0.082343794 0.16943082 -0.25906077 -0.17999582 -0.23424062 -0.11685842 -0.18695782
-0.15759943 0.017228683 -0.11457556 -0.16399805 -0.22452031 0.02374873 -0.035991512 -0.30748186
-0.13312964 -0.08982834 -0.03672476 0.063515425 0.028861905 0.19556297 0.0629355 -0.28950402
-0.087997 -0.20860088 0.014411493 -0.0013219442 -0.17165916 -0.094448306 -0.017490672 0.15673
-0.24657828 -0.37497973 -0.2750871 -0.31082445 -0.18707989 -0.06655586 0.039100856 -0.03791294
0.09491971 -0.027534707 0.2659857 0.04113772 -0.02511081 -0.13740504 0.0023902478 -0.24950461
-0.19024797 -0.10672143 -0.082978204 -0.16106935 0.048489776 -0.1047991 -0.35984984 -0.36926123
0.08128818 -0.021095084 -0.17184587 -0.021324588 -0.18782963 0.13953295 -0.106971376 -0.33332092
0.050069988 -0.13501829 -0.061648216 -0.22289346 -0.09943497 -0.008764182 -0.13652246 -0.234261
-0.06750787 -0.30464333 -0.03550491 -0.22364675 0.06629081 -0.104586296 0.16333601 0.059241746
0.2904167 -0.070261836 -0.06237146 -0.10279018 -0.24143334 -0.024744803 0.010393595 -0.16092297
0.025208388 -0.11066762 -0.28257716 -0.033064462 -0.22554168 -0.40462023 0.022118386 0.12742177
-0.037493393 -0.10729432 -0.27142516 -0.23660658 0.014423474 -0.024306167 0.005003036 -0.20016089
0.0073855706 -0.2870686 0.0016018806 -0.20246015 -0.12579928 0.013959227 -0.17781389 -0.21165584
-0.16016234 0.118713975 -0.0962113 -0.1215466 0.075858995 -0.07906472 -0.21631965 0.066267975
0.17715234 -0.2534667 -0.1937494 -0.2266617 -0.17657152 -0.09110452 -0.047043107 -0.34812403
-0.13813786 -0.16370715 -0.20078714 -0.18694809 -0.21060476 -0.3332805 -0.19417435 -0.018925758
-0.020683886 -0.17847738 -0.012531143 0.11005403 -0.19545458 -0.1813043 0.010969915 -0.10122034
-0.10649756 -0.15220061 -0.17898439 -0.14769761 0.017336445 -0.03824652 -0.03229573 -0.33562028
0.13393468 -0.047221467 -0.12932096 -0.0025699444 0.24003135 0.16637567 0.023358375 -0.015961273
-0.048926137 -0.23426925 0.061355848 -0.024625147 -0.21810487 -0.3506365 -0.059562072 -0.13099886
-0.028018309 -0.04761282 -0.21159858 0.0012249344 -0.13737527 -0.15551102 -0.28877842 0.010206061
-0.2334045 -0.34731865 -0.17334579 -0.1379856 0.050499428 -0.1495391 0.078412786 -0.08748484
-0.023842487 -0.013250229 0.22822252 -0.23753946 -0.13954616 -0.24277942 -0.09070183 0.44506875
0.05573868 -0.12614124 0.03425189 -0.18013185 -0.095572785 -0.0883286 -0.31762186 -0.15803489
-0.103433914 -0.056669082 0.1675057 -0.22759125 -0.16709174 0.30688965 0.04696097 -0.18213397
-0.05146401 -0.027279247 0.016951311 -0.08265034 -0.16052444 -0.21423554 0.029389154 -0.11043704
-0.11710789 -0.20635016 0.022329574 -0.2548961 -0.30274943 -0.20724443 0.12541343 -0.15197642
00000000: 5906 f63b 2004 a03c cbc4 4b3c f0f4 56be
00000010: 9bf3 e2bd fe4b 9ebe 8f98 f93d b8a6 97be
00000020: a801 1ebe f232 46bd ff68 74be 4ee9 c5bd
00000030: 83c9 c9be 8cba 6fbe a172 ebbc e810 f5bd
00000040: 78ae e0bd 7382 87be e74d c03c 7920 6bbe
00000050: 9382 90be 6ab7 7bbe 74d9 38be ed97 f5be
00000060: 6eab c2be 0503 b4be 2c6c c0be c080 1bbe
00000070: 2c23 13be 4688 e2bd bf39 533d e7c8 f9bd
00000080: be22 dabd dda3 a8bd 467f 2d3e 9da3 84be
00000090: d350 38be c6dc 6fbe 7853 efbd df71 3fbe
000000a0: bf61 21be 2b23 8d3c 97a6 eabd 1bef 27be
000000b0: a7e8 65be b28c c23c d66b 13bd 436e 9dbe
000000c0: 2353 08be ecf7 b7bd b46c 16bd 6014 823d
000000d0: cd6f ec3c a941 483e 54e4 803d df39 94be
000000e0: c537 b4bd 789b 55be 2f1e 6c3c 1645 adba
000000f0: 6bc7 2fbe 1d6e c1bd 9948 8fbc d47d 203e
00000100: 047f 7cbe 58fd bfbe 37d8 8cbe 6224 9fbe
00000110: df91 3fbe 704e 88bd 3828 203d 994a 1bbd
00000120: 4465 c23d 7790 e1bc 472f 883e 0780 283d
00000130: 2fb5 cdbc e8b3 0cbe b4a5 1c3b 237e 7fbe
00000140: 5dd0 42be c490 dabd 7af0 a9bd 5def 24be
00000150: 379d 463d e9a0 d6bd 3d3e b8be cf0f bdbe
00000160: 6b7a a63d 99cf acbc 5df8 2fbe e7b0 aebc
00000170: 6956 40be bae1 0e3e cf13 dbbd 0aa9 aabe
00000180: 3016 4d3d 3c42 0abe d782 7cbd 2f3e 64be
00000190: 90a4 cbbd a597 0fbc 8bcc 0bbe 1ee2 6fbe
000001a0: 9141 8abd 36fa 9bbe 996d 11bd a703 65be
000001b0: 7ac3 873d 5731 d6bd 8e41 273e 79a7 723d
000001c0: 7fb1 943e 70e5 8fbd 3779 7fbd a883 d2bd
000001d0: 4d3a 77be 9db5 cabc e649 2a3c fec8 24be
000001e0: d281 ce3c b5a5 e2bd f4ad 90be 9a6e 07bd
000001f0: 66f4 66be 622a cfbe 9e31 b53c da7a 023e
00000200: ac92 19bd 20bd dbbd 3df8 8abe ff48 72be
00000210: 6f50 6c3c ba1d c7bc 82f0 a33b faf6 4cbe
00000220: a802 f23b a8fa 92be 32f6 d13a b751 4fbe
00000230: 87d1 00be 3eb5 643c d814 36be 4fbc 58be
00000240: 9901 24be 5020 f33d 6e0a c5bd 6ced f8bd
00000250: f65b 9b3d afec a1bd e682 5dbe 81b7 873d
00000260: 6c67 353e 63c6 81be 3e66 46be 011a 68be
00000270: 2acf 34be 0295 babd 46b0 40bd 503d b2be
00000280: 0374 0dbe d9a2 27be 259b 4dbe 526f 3fbe
00000290: c6a8 57be bea3 aabe a4d5 46be 310a 9bbc
000002a0: 4171 a9bc c6c2 36be 6c4f 4dbc 0264 e13d
000002b0: 3f25 48be d6a7 39be 29bb 333c 9c4c cfbd
000002c0: 651b dabd 7ada 1bbe af47 37be 0b3e 17be
000002d0: 2905 8e3c 62a8 1cbd 8748 04bd 6cd6 abbe
000002e0: 2c26 093e 4c6b 41bd b76c 04be 836c 28bb
000002f0: c7ca 753e 625e 2a3e 105a bf3c 37c1 82bc
00000300: c666 48bd 47e4 6fbe 4550 7b3d adba c9bc
00000310: e256 5fbe a186 b3be 5cf7 73bd 9124 06be
00000320: a786 e5bc a905 43bd 4cad 58be fa8d a03a
00000330: 1aac 0cbe 483e 1fbe c4da 93be 5337 273c
00000340: 9701 6fbe c0d3 b1be 8f81 31be 194c 0dbe
00000350: 7dd8 4e3d c720 19be e296 a03d 402b b3bd
00000360: 5251 c3bc 7d17 59bc 2ab3 693e 8b3d 73be
00000370: 30e5 0ebe 2b9b 78be e2c1 b9bd 0de0 e33e
00000380: 3e4e 643d 2b2b 01be b64b 0c3d 7c74 38be
00000390: aabb c3bd a0e5 b4bd 559f a2be e6d3 21be
000003a0: 29d5 d3bd d71d 68bd 9d86 2b3e ae0d 69be
000003b0: 191a 2bbe a420 9d3e 255a 403d 5481 3abe
000003c0: edcb 52bd ba78 dfbc 7add 8a3c 9544 a9bd
000003d0: 8560 24be 9060 5bbe 86c1 f03c d12c e2bd
000003e0: 43d6 efbd 754d 53be 83ec b63c be81 82be
000003f0: f901 9bbe e237 54be 616c 003e b59f 1bbe

fc2.weight f4 [256, 512]
0.052863147 0.014492339 -0.026508266 0.12757991 -0.077647656 -0.114948034 -0.005113457 0.02307744
0.073494956 -0.15940544 0.041550223 0.014779779 0.10334753 -0.071304396 -0.14497419 -0.0043345117
-0.08978398 -0.19338965 -0.029073706 -0.14883184 -0.12026553 -0.07028643 -0.2649667 -0.14840724
-0.10007887 0.1687901 -0.07546265 -0.11078039 -0.023558004 -0.006145699 -0.08718043 -0.14599063
0.076627694 -0.0853648 -0.10779602 -0.16043642 0.0027003963 -0.037950236 -0.04720966 0.03430044
0.012261552 -0.05419874 0.09459131 0.11350315 -0.028773323 0.03141983 0.14972256 0.08429575
0.001544148 -0.15857224 0.015728027 -0.38713202 0.036377076 -0.451493 0.03806586 -0.27246732
0.021009589 -0.024243264 -0.15997143 -0.019016176 0.1546965 -0.050269313 -0.0051250244 -0.11030925
-0.0497249 -0.16109139 -0.02178364 0.028599244 0.078429975 -0.37324578 -0.13064809 0.14560607
0.14852321 0.060733967 -0.107589476 -0.07011114 0.12529087 0.08809046 -0.02053798 -0.10716868
0.023264665 -0.112976275 0.024445208 0.037106235 -0.17511983 -0.06807219 -0.099466 0.046272893
0.095126346 -0.286654 -0.047861345 -0.12309164 0.006915101 -0.17766865 0.009867775 -0.027950726
-0.11559752 -0.006877245 0.026043275 -0.04022752 0.013324473 -0.0126951365 -0.06053986 -0.10294283
0.03433889 -0.14736089 -0.07318439 0.19032468 -0.06747784 -0.16316167 -0.12976252 -0.09825286
-0.15216957 -0.011009521 -0.11967649 -0.17124866 0.0313933 -0.011738673 0.04371386 0.014863196
0.001983059 -0.07630041 -0.038988326 0.078911275 0.057665605 -0.20149636 0.008811416 0.047242526
0.045908898 0.067152195 -0.034931526 -0.044118993 -0.04443335 -0.025792928 0.055970766 -0.01730927
0.014019955 0.020926155 -0.025984155 -0.31841063 0.17612436 -0.10114454 -0.048584543 -0.03415517
0.09657961 0.035196345 -0.19729863 0.08709815 -0.07693088 -0.3805452 -0.03350631 -0.108918846
-0.14621118 -0.14798278 -0.1889257 -0.00918869 -0.059416495 -0.16284773 -0.06646011 0.01568511
0.031218335 -0.016595518 -0.0090449825 0.02614201 -0.13246574 0.087013535 -0.052012667 0.014830241
0.003340368 -0.0772013 -0.03230689 -0.2784415 0.07194082 0.10732798 0.16222554 -0.004640506
0.018864641 0.07279694 -0.23161393 -0.022394754 -0.05699238 -0.39762318 -0.033744074 0.089659095
-0.15303642 0.26482472 -0.02620525 -0.06948514 -0.3997101 -0.13656746 -0.27064684 -0.05237436
0.0050301333 0.03385892 -0.25711083 -0.029007792 0.051603954 0.01789338 -0.09296496 -0.068445265
0.07010717 0.061345294 -0.035681006 -0.046949904 0.07399821 -0.16072138 -0.010805395 -0.013220295
-0.005257195 -0.11438041 -0.047058698 -0.102492705 -0.07721755 0.037122425 -0.36966753 0.08850591
-0.049816664 0.014966744 -0.47562099 -0.022216095 -0.12338913 -0.052454293 0.013771767 0.006392297
-0.482109 0.0031859989 0.06449021 0.15408055 -0.02479309 0.09780896 0.086484745 -0.031081827
0.008910725 0.030507784 -0.36749387 -0.026811086 -0.028620522 -0.06771888 0.0716919 -0.06552431
-0.118296415 -0.07099989 -0.04457387 0.015854228 -0.0089169685 0.055004425 -0.07518144 0.14346695
-0.004103242 -0.019504571 0.08096142 -0.14180294 -0.014961071 0.023716077 -0.12243506 -0.008555794
00000000: 0787 583d 4771 6d3c dd27 d9bc 4fa4 023e
00000010: bc05 9fbd e069 ebbd c98e a7bb e60c bd3c
00000020: 8684 963d 2e3b 23be 9130 2a3d e326 723c
00000030: dfa7 d33d 0a08 92bd 1d74 14be 8508 8ebb
00000040: aae0 b7bd f007 46be fb2b eebc 6067 18be
00000050: c64d f6bd 55f2 8fbd b7a9 87be 11f8 17be
00000060: 27f6 ccbd 50d7 2c3e 298c 9abd d4e0 e2bd
00000070: b7fc c0bc dc61 c9bb a78b b2bd 917e 15be
00000080: fbee 9c3d bed3 aebd 29c4 dcbd 7249 24be
00000090: 22f9 303b b571 1bbd eb5e 41bd 9e7e 0c3d
000000a0: ade4 483c 7fff 5dbd 17b9 c13d 5774 e83d
000000b0: 08b6 ebbc 14b2 003d df50 193e 40a3 ac3d
000000c0: 0265 ca3a c360 22be 10d8 803c 2b36 c6be
000000d0: 2100 153d 172a e7be f2ea 1b3d d680 8bbe
000000e0: 4d1c ac3c cf99 c6bc 8dcf 23be d0c7 9bbc
000000f0: c268 1e3e 32e7 4dbd d2ef a7bb d1e9 e1bd
00000100: 56ac 4bbd 24f5 24be 9b73 b2bc f648 ea3c
00000110: e59f a03d 121a bfbe 9dc8 05be c219 153e
00000120: 7816 183e 2ec4 783d df57 dcbd 6e96 8fbd
00000130: 404c 003e c568 b43d 443f a8bc 417b dbbd
00000140: 8a95 be3c 1b60 e7bd 5141 c83c b5fc 173d
00000150: 9d52 33be 6f69 8bbd d5b4 cbbd a588 3d3d
00000160: 9ad1 c23d 50c4 92be 420a 44bd 7817 fcbd
00000170: 1298 e23b c5ee 35be 73ac 213c ecf8 e4bc
00000180: 64be ecbd 835a e1bb b558 d53c 9dc5 24bd
00000190: e44e 5a3c 43ff 4fbc a5f8 77bd b1d3 d2bd
000001a0: f0a6 0c3d c6e5 16be b3e1 95bd 79e4 423e
000001b0: d231 8abd da13 27be 77e0 04be cc38 c9bd
000001c0: 57d2 1bbe 4761 34bc f318 f5bd cf5b 2fbe
000001d0: 4396 003d 9053 40bc 4e0d 333d c384 733c
000001e0: 36f6 013b 6443 9cbd 39b2 1fbd 3c9c a13d
000001f0: c532 6c3d 1055 4ebe c25d 103c 6181 413d
00000200: f80a 3c3d 1787 893d 5c14 0fbd 1eb6 34bd
00000210: bfff 35bd b14b d3bc 9a41 653d 2ccc 8dbc
00000220: f4b3 653c 546d ab3c b9dc d4bc b806 a3be
00000230: f259 343e de24 cfbd 9600 47bd 4be6 0bbd
00000240: 88cb c53d 0b2a 103d a708 4abe 8460 b23d
00000250: f08d 9dbd d2d6 c2be ea3d 09bd d810 dfbd
00000260: 62b8 15be cc88 17be bd75 41be 298c 16bc
00000270: b65e 73bd 8ec1 26be 3d1c 88bd 0f7e 803c
00000280: 98bd ff3c 53f3 87bc 6831 14bc c527 d63c
00000290: 19a5 07be 2734 b23d 3c0b 55bd 8afa 723c
000002a0: 13ea 5a3b b71b 9ebd 3b54 04bd e28f 8ebe
000002b0: b555 933d c6ce db3d 741e 263e 630f 98bb
000002c0: 058a 9a3c 9016 953d 342c 6dbe 3475 b7bc
000002d0: d870 69bd 4495 cbbe 3a37 0abd 309f b73d
000002e0: 94b5 1cbe 1b97 873e 64ac d6bc 3a4e 8ebd
000002f0: cda6 ccbe 57d8 0bbe 3992 8abe 7f86 56bd
00000300: d1d3 a43b a7af 0a3d 08a4 83be c0a1 edbc
00000310: ab5e 533d 2395 923c 6a64 bebd 082d 8cbd
00000320: 5994 8f3d 3445 7b3d 3f26 12bd 8b4e 40bd
00000330: 608c 973d 2594 24be 1d09 31bc f099 58bc
00000340: 8c44 acbb 4740 eabd 9fc0 40bd b2e7 d1bd
00000350: 3c24 9ebd af0d 183d 1045 bdbe 9642 b53d
00000360: 8f0c 4cbd 1337 753c 9884 f3be 87fe b5bc
00000370: 71b3 fcbd 50da 56bd faa2 613c 7976 d13b
00000380: fed6 f6be 31cc 503b 7113 843d 4bc7 1d3e
00000390: e11a cbbc 1050 c83d ea1e b13d 519f febc
000003a0: 4afe 113c 76eb f93c 2828 bcbe eca2 dbbc
000003b0: 9675 eabc 32b0 8abd 34d3 923d 9c31 86bd
000003c0: 6445 f2bd 6468 91bd 1793 36bd bae0 813c
000003d0: 7a18 12bc 524c 613d baf8 99bd 00e9 123e
000003e0: 7d74 86bb 0dc8 9fbc 1acf a53d ca34 11be
000003f0: 481f 75bc 3848 c23c 3cbf fabd 9a2d 0cbc

fc2.bias f4 [256]
-0.053837534 -0.09777125 -0.07076165 -0.057208564 -0.0014028123 0.6931093 -0.12318131 -0.04745635
-0.02494124 -0.047483835 -0.058898762 -0.6345126 -0.0642097 -0.081916355 0.13115194 -0.1448905
-0.08364693 -0.20437992 0.095369734 -0.04160944 0.046916295 -0.034451067 -0.13780066 -0.1341743
-0.082276344 -0.10728368 -0.11455128 -0.05308935 0.1230938 -0.058099374 -0.08098501 -0.027986221
0.6304686 -0.033693977 -0.07359752 0.09286529 -0.11250958 -0.033979643 0.64972526 0.0026185245
0.0784045 -0.08557279 -0.0012709461 -0.06353971 -0.2079873 0.027796388 -0.010937774 0.16812262
-0.08196712 -0.06496624 0.005378522 -0.024635635 -0.077525415 -0.008507185 -0.092978835 -0.122199014
-0.04942482 0.03042642 -0.012935225 -0.06245923 0.012954667 -0.10134589 -0.07312732 -0.07444149
-0.04743021 -0.061512347 -0.11667296 -0.043576308 -0.10132799 0.019059421 -0.019834844 0.0015118918
-0.080696784 -0.104735166 -0.14264013 -0.01327597 -0.21449694 -0.018741243 -0.14562374 -0.08121837
-0.12462649 -0.14324187 -0.022924203 -0.0711171 -0.39080787 -0.055285044 -0.018947229 -0.24257998
-0.060555764 -0.065925345 0.48882854 0.0409549 -0.046693392 -0.026417525 0.036854737 0.07562457
-0.017857125 -0.064607725 -0.05090532 -0.067638144 0.005171751 -0.07014864 -0.13096675 -0.17136836
-0.13833697 -0.12035066 -0.007226096 -0.00882078 -0.01968329 -0.044245414 -0.084892154 -0.031949572
-0.397642 -0.068639584 -0.12411601 -0.17308816 -0.06974183 0.0015474966 -0.0722494 -0.100471154
-0.0411946 -0.065065406 -0.018526372 -0.24060181 -0.0523772 -0.0441658 0.0025073562 -0.0058979257
-0.13301629 0.15133996 -0.05344519 -0.035029 0.31403115 -0.11739308 -0.11482116 0.35080478
-0.0915636 -0.106064 -0.012269796 -0.106783725 0.36445004 -0.067551546 0.44446546 0.012658387
-0.04135197 -0.045042437 -0.23786461 -0.15060878 -0.033721793 -0.024001038 -0.038707297 0.3140888
-0.1551475 -0.22003298 -0.060829762 -0.090018585 -0.1114288 -0.09726935 -0.10626343 -0.04962029
-0.008544587 -0.048399635 -0.065629154 -0.0434339 -0.10223883 -0.031535644 -0.1360383 -0.1364466
-0.07331543 -0.09159963 -0.04189835 -0.036466118 -0.019446164 0.1692419 -0.07344688 -0.036944404
-0.11309906 -0.0705987 -0.13168986 -0.110281594 -0.07862783 -0.13011152 -0.12819634 -0.08264373
-0.108780734 -0.22809424 -0.0739792 -0.10190706 -0.05663102 -0.044185568 -0.37501702 -0.032656457
-0.10429768 -0.06808591 0.52361095 0.09584473 -0.02818384 0.16605993 -0.1803543 -0.061219398
-0.07157794 -0.071362 -0.093929596 -0.074554026 -0.06044503 -0.025355244 -0.061060667 -0.07927751
-0.115298174 -0.024231734 -0.04773635 0.08523246 -0.15043302 -0.04574598 -0.0961164 -0.14875431
-0.14896251 -0.054367144 -0.045952193 0.01183944 -0.06502392 -0.1511046 -0.00900255 -0.11188637
0.06588319 -0.037161518 -0.05300014 -0.06882752 -0.0533826 -0.004500925 -0.1132098 -0.06142281
-0.026593031 -0.054635588 -0.13970718 -0.1584375 -0.06294151 -0.055964652 0.24338813 0.053797316
-0.045567185 -0.025703626 -0.06381244 -0.09698997 -0.1782684 -0.0669875 -0.1288617 0.10208612
0.09936011 -0.14052247 -0.07973207 0.53593296 -0.20547882 0.098132424 -0.027099174 0.11434928
00000000: bf84 5cbd 4b3c c8bd 7ceb 90bd 8753 6abd
00000010: 92de b7ba 9c6f 313f 7c46 fcbd 9761 42bd
00000020: 9251 ccbc 697e 42bd d43f 71bd 6b6f 22bf
00000030: 6080 83bd c3c3 a7bd b24c 063e 2d5e 14be
00000040: 154f abbd f848 51be 3551 c33d a96e 2abd
00000050: 4d2b 403d 901c 0dbd 9e1b 0dbe fd64 09be
00000060: 8080 a8bd 8cb7 dbbd dd99 eabd 3874 59bd
00000070: 9a18 fc3d 9cf9 6dbd 78db a5bd 5c43 e5bc
00000080: 6466 213f b202 0abd 4cba 96bd 2830 be3d
00000090: 6c6b e6bd 3d2e 0bbd 6554 263f 8d9b 2b3b
000000a0: 8a92 a03d c940 afbd e095 a6ba 1c21 82bd
000000b0: 9ffa 54be 40b5 e33c 5934 33bc 5628 2c3e
000000c0: 61de a7bd 050d 85bd 503e b03b acd0 c9bc
000000d0: a5c5 9ebd b861 0bbc b06b bebd 7a43 fabd
000000e0: ae71 4abd d440 f93c 44ee 53bc 40d5 7fbd
000000f0: d03f 543c 6f8e cfbd c7c3 95bd c874 98bd
00000100: 2e46 42bd 5ff4 7bbd 3cf2 eebd 127d 32bd
00000110: 0d85 cfbd 8122 9c3c af7c a2bc ac2a c63a
00000120: 5b44 a5bd 647f d6bd 4110 12be 7483 59bc
00000130: 16a5 5bbe 3c87 99bc 641e 15be d155 a6bd
00000140: 2c3c ffbd ffad 12be 8acb bbbc d8a5 91bd
00000150: f817 c8be 9272 62bd 3837 9bbc e366 78be
00000160: 5209 78bd de03 87bd bc47 fa3e 53c0 273d
00000170: 9241 3fbd 9169 d8bc fef4 163d 0ee1 9a3d
00000180: 1b49 92bc 0e51 84bd 1982 50bd de85 8abd
00000190: cb77 a93b 17aa 8fbd 261c 06be 307b 2fbe
000001a0: 35a8 0dbe 687a f6bd e3c8 ecbb 0885 10bc
000001b0: da3e a1bc ae3a 35bd f0db adbd 8edd 02bd
000001c0: bb97 cbbe e992 8cbd 8930 febd 063e 31be
000001d0: ced4 8ebd 5fd5 ca3a 7ef7 93bd d2c3 cdbd
000001e0: abbb 28bd 0341 85bd 9ec4 97bc 5260 76be
000001f0: 7a89 56bd 33e7 34bd 7552 243b 6343 c1bb
00000200: 6c35 08be ddf8 1a3e 58e9 5abd 927a 0fbd
00000210: b1c8 a03e c86b f0bd 5b27 ebbd af9c b33e
00000220: b285 bbbd 1538 d9bd 4107 49bc 6db1 dabd
00000230: 3299 ba3e 7758 8abd fa90 e33e 2065 4f3c
00000240: af60 29bd 6b7e 38bd c892 73be 3039 1abe
00000250: dd1f 0abd d39d c4bc 8b8b 1ebd 3fd0 a03e
00000260: fcde 1ebe 5350 61be a128 79bd aa5b b8bd
00000270: c834 e4bd 2735 c7bd a4a0 d9bd a53e 4bbd
00000280: 98fe 0bbc b23e 46bd 9468 86bd bfe7 31bd
00000290: 9762 d1bd 852b 01bd a04d 0bbe a8b8 0bbe
000002a0: 6626 96bd 9698 bbbd 9b9d 2bbd 7f5d 15bd
000002b0: 904d 9fbc c04d 2d3e 516b 96bd 0453 17bd
000002c0: 7ba0 e7bd 0d96 90bd b5d9 06be 51db e1bd
000002d0: a107 a1bd f43b 05be e745 03be 1e41 a9bd
000002e0: 6fc8 debd 8991 69be 6882 97bd a6b4 d0bd
000002f0: eef5 67bd edfb 34bd 3b02 c0be c7c2 05bd
00000300: 069a d5bd a070 8bbd 5e0b 063f 3e4a c43d
00000310: cce1 e6bc 9d0b 2a3e ccae 38be 31c1 7abd
00000320: 7497 92bd 3e26 92bd 295e c0bd c8af 98bd
00000330: 3595 77bd cdb5 cfbc c01a 7abd 3f5c a2bd
00000340: 7321 ecbd a181 c6bc 3187 43bd 5b8e ae3d
00000350: 1d0b 1abe 2360 3bbd add8 c4bd 0d53 18be
00000360: a189 18be 15b0 5ebd 5e38 3cbd 36fa 413c
00000370: 432b 85bd 2abb 1abe 6e7f 13bc ae24 e5bd
00000380: c4ed 863d ad36 18bd ad16 59bd 71f5 8cbd
00000390: b7a7 5abd 7f7c 93bb 8ada e7bd 7c96 7bbd
000003a0: a1d9 d9bc 91c9 5fbd 660f 0fbe 713d 22be
000003b0: 7ae7 80bd 313b 65bd bd3a 793e 935a 5c3d
000003c0: a8a4 3abd 6990 d2bc 19b0 82bd ada2 c6bd
000003d0: fe8b 36be be30 89bd 52f4 03be 8712 d13d
000003e0: 507d cb3d 1fe5 0fbe 914a a3bd e732 093f
000003f0: 0a69 52be a7f9 c83d 16ff ddbc f52f ea3d

fc3.weight f4 [64, 256]
-0.1121754 -0.0069289412 -0.064144656 0.037233293 -0.013996596 -0.6288348 0.027090887 0.07257327
0.024670241 -0.034671135 0.040968813 -0.52413416 0.07956606 -0.03516367 0.059114378 -0.0049969167
0.03586623 -0.02343889 0.13993467 -0.019907806 0.19136457 0.02269881 0.074816585 -0.605249
0.012627635 0.05073817 0.075185925 0.023874637 -0.18854783 -0.001685841 -0.018704662 0.08643153
0.13036162 0.01956302 0.037147492 0.011378546 0.046574406 0.018976273 -0.43520093 -0.03433072
0.052043673 -0.042513914 -0.007827543 0.084855065 0.0061732708 0.056950133 0.062015247 -0.5018829
0.0018120332 -0.034920428 -0.08649613 0.039430864 0.0734921 -0.004273797 0.015952386 0.07209564
-0.014114935 0.020103227 -0.084802896 0.052992053 -0.07440413 0.044044737 0.011425003 -0.0055146054
0.10324986 -0.035942625 -0.09633159 -0.014551821 -0.026947677 0.10874039 -0.12618837 -0.010777684
-0.10310508 -0.056931693 -0.08103437 0.025604825 0.006567041 0.024648743 0.10829666 0.049296193
-0.001667242 0.007626996 -0.007100005 0.028857414 0.13615976 0.06731702 -0.03128453 -0.03857461
0.048152886 0.059985884 -0.31567663 0.117725715 0.060143847 0.032153595 0.12574066 0.27807248
0.020521747 -0.008997126 0.036908068 -0.016170876 0.049953833 -0.001304765 -0.066870764 -0.5758204
-0.00904297 0.055894695 -0.041952644 0.020872377 -0.041378472 -0.04875444 -0.07804768 -0.030177442
-0.5641682 -0.07236508 -0.042229816 -0.02021172 0.106586814 -0.036218703 -0.00046285914 -0.007912107
0.038808446 0.0070195906 0.04743353 -0.60263807 0.030418105 0.081654064 -0.05760242 -0.114729516
-0.004018877 -0.27375606 -0.060390066 -0.0543054 -0.1466472 0.0558842 -0.07689617 -0.035170205
0.023990951 -0.0037617022 0.084137455 0.030888956 0.006570682 0.008825546 -0.22297208 -0.05903667
-0.01627953 0.07571858 0.11285033 0.0760891 0.03469286 -0.02850462 0.08527182 -0.11027634
0.00036991847 0.01766597 0.016308608 0.03381428 -0.024734428 0.0025955327 -0.014460602 0.0040889336
-0.010463076 0.18754743 0.026067816 0.08083734 -0.0006614136 0.084590144 0.059758604 -0.040970426
0.07249514 -0.008388311 0.045370907 0.011513154 0.003787028 -0.26562825 0.05485755 -0.01548864
0.019758815 -0.06308727 0.052484166 -0.026757497 -0.019970875 -0.06706988 0.05147464 0.017359154
0.044881105 0.009094952 -0.06042161 0.07744882 -0.03328646 0.042883903 -0.35081044 0.05310882
-0.107956566 -0.059246544 0.04000825 0.075173005 0.010022003 -0.050521713 0.06310989 -0.03533994
0.061219476 0.06794683 0.0077839 0.010144872 -0.015876988 0.020436186 0.050556924 0.007984377
-0.035477396 0.012843275 0.010142642 0.019626657 -0.11329686 0.017462162 -0.046630062 0.013452741
-0.60422575 0.070754565 -0.0017052939 0.041695546 0.036153063 0.058307994 -0.020568207 0.018279051
-0.21826713 -0.053500053 0.008728673 0.05639557 -0.024108624 -0.027931651 0.0008521535 0.034633677
-0.116413526 -0.0469372 0.013291282 -0.039518375 0.038701348 -0.004371042 0.1792528 0.18237568
0.055983517 0.027095702 0.041084956 -0.038788207 -0.36591336 0.013552553 -0.007782353 0.09420317
0.1774506 -0.0050707413 0.041085523 0.16872956 0.079886526 0.15187626 0.023707878 0.18070945
00000000: 37bc e5bd 2c0c e3bb 465e 83bd f081 183d
00000010: fb51 65bc 51fb 20bf b5ed dd3c 4ba1 943d
00000020: 3f19 ca3c 5203 0ebd eace 273d a82d 06bf
00000030: 88f3 a23d c807 10bd eb21 723d 2dbd a3bb
00000040: 78e8 123d ea02 c0bc 094b 0f3e b215 a3bc
00000050: 13f5 433e dbf2 b93c 7039 993d 99f1 1abf
00000060: 24e4 4e3c d4d2 4f3d 14fb 993d be94 c33c
00000070: af12 41be 70f7 dcba 853a 99bc 0403 b13d
00000080: 847d 053e a042 a03c f827 183d 156d 3a3c
00000090: cec4 3e3d 2174 9b3c a8d2 debe 5e9e 0cbd
000000a0: bf2b 553d 1223 2ebd 183f 00bc 7ec8 ad3d
000000b0: 2649 ca3b 8b44 693d b303 7e3d 667b 00bf
000000c0: bf81 ed3a b908 0fbd e224 b1bd 4282 213d
000000d0: 0783 963d 350b 8cbb 94ae 823c e1a6 933d
000000e0: 5442 67bc 86af a43c 24ad adbd 320e 593d
000000f0: 3161 98bd 4168 343d f02f 3b3c ddb3 b4bb
00000100: aa74 d33d 9338 13bd 7f49 c5bd c36a 6ebc
00000110: 60c1 dcbc 48b3 de3d 8637 01be e294 30bc
00000120: c228 d3bd 3531 69bd 59f5 a5bd 36c1 d13c
00000130: 5530 d73b 29ec c93c a4ca dd3d ceea 493d
00000140: 5c87 daba e1eb f93b 29a7 e8bb 6266 ec3c
00000150: 776d 0b3e 81dd 893d 3524 00bd 6900 1ebd
00000160: f63b 453d c2b3 753d 5ea0 a1be 2e1a f13d
00000170: 6559 763d 7db3 033d 29c2 003e 845f 8e3e
00000180: 391d a83c ae68 13bc ea2c 173d c978 84bc
00000190: 649c 4c3d a604 abba 8af3 88bd f768 13bf
000001a0: f728 14bc d6f1 643d 89d6 2bbd 8cfc aa3c
000001b0: 797c 29bd bcb2 47bd 76d7 9fbd af36 f7bc
000001c0: 546d 10bf 2534 94bd 2cf9 2cbd 0d93 a5bc
000001d0: 304a da3d 105a 14bd e7ab f2b9 c8a1 01bc
000001e0: 9bf5 1e3d 9804 e63b a949 423d 7d46 1abf
000001f0: 642f f93c 3f3a a73d 84f0 6bbd 4ff7 eabd
00000200: c9b0 83bb c129 8cbe 935b 77bd 576f 5ebd
00000210: af2a 16be d5e6 643d bd7b 9dbd a20e 10bd
00000220: ac88 c43c e486 76bb 4250 ac3d d60a fd3c
00000230: e04e d73b 0699 103c cb52 64be 6fd0 71bd
00000240: a65c 85bc 5812 9b3d 131e e73d 9ad4 9b3d
00000250: 1a1a 0e3d 8582 e9bc fea2 ae3d 90d8 e1bd
00000260: 9ef1 c139 39b8 903c a199 853c d880 0a3d
00000270: db9f cabc d019 2a3b 29ec 6cbc 76fc 853b
00000280: 526d 2bbc 6f0c 403e 2c8c d53c 0c8e a53d
00000290: b762 2dba 993d ad3d 70c5 743d 9bd0 27bd
000002a0: 5578 943d 206f 09bc d8d6 393d aba1 3c3c
000002b0: c92f 783b 6d00 88be 4fb2 603d 11c4 7dbc
000002c0: 3ddd a13c e633 81bd a3f9 563d 8a32 dbbc
000002d0: f699 a3bc ef5b 89bd 12d7 523d c934 8e3c
000002e0: 40d5 373d fe02 153c a67c 77bd 7d9d 9e3d
000002f0: 6257 08bd 08a7 2f3d 6d9d b3be a288 593d
00000300: 5518 ddbd 81ac 72bd b1df 233d 4ef4 993d
00000310: 5433 243c dbef 4ebd c23f 813d 9dc0 10bd
00000320: 46c1 7a3d b527 8b3d 1610 ff3b ad36 263c
00000330: 7510 82bc ca69 a73c c714 4f3d e8d0 023c
00000340: bf50 11bd 9a6c 523c 532d 263c 15c8 a03c
00000350: 2f08 e8bd cf0c 8f3c 2aff 3ebd e368 5c3c
00000360: 8aae 1abf c5e7 903d 2b84 dfba f3c8 2a3d
00000370: 3c15 143d 5dd4 6e3d a87e a8bc f3bd 953c
00000380: 6b81 5fbe df22 5bbd b502 0f3c 0bff 663d
00000390: 737f c5bc ebd0 e4bc 0e63 5f3a 0bdc 0d3d
000003a0: 376a eebd 3941 40bd adc3 593c 05de 21bd
000003b0: 4e85 1e3d f53a 8fbb 0c8e 373e b1c0 3a3e
000003c0: f94e 653d cef7 dd3c b348 283d 62e0 1ebd
000003d0: ff58 bbbe 870b 5e3c 1c03 ffbb 97ed c03d
000003e0: 9cb5 353e 7628 a6bb 4b49 283d 71c7 2c3e
000003f0: 8c9b a33d 7385 1b3e 0637 c23c e60b 393e

fc3.bias f4 [64]
0.05478048 0.9585444 -0.0066786446 -0.09564892 -0.114649944 -0.085715674 -0.08345978 0.5919042
0.13087377 0.70622236 -0.028198233 0.24786426 0.17605531 -0.05802828 0.34602985 0.048688512
0.43413544 0.47976762 -0.034594 -0.15364513 0.27953243 -0.22287817 -0.12789798 -0.095620826
0.0131017305 -0.044407204 -0.11719992 0.0049995654 -0.09580348 -0.08928058 0.2407849 0.45202604
-0.79456043 -0.49634117 0.0071895625 0.49569616 0.6878384 0.28935978 -0.3409386 0.71353
0.84942156 0.82199293 0.0046818024 0.41293812 0.43242788 0.7984681 0.31169564 -0.045238536
0.20346797 -0.01650661 0.33613437 1.1360755 0.18070064 0.765946 -0.13863102 -0.054037325
-0.1737677 -0.16668254 0.6739329 -0.20500904 1.0684667 -0.10455716 0.78043896 0.08093941
00000000: 7f61 603d 2a63 753f 88d8 dabb 95e3 c3bd
00000010: 97cd eabd b38b afbd f6ec aabd 0987 173f
00000020: c603 063e fdca 343f fbff e6bc 21d0 7d3e
00000030: d847 343e 10af 6dbd d32a b13e 9b6d 473d
00000040: 0047 de3e 1aa4 f53e 70b2 0dbd 2655 1dbe
00000050: e01e 8f3e 2d3a 64be b0f7 02be dad4 c3bd
00000060: a4a8 563c 54e4 35bd 8306 f0bd 65d3 a33b
00000070: 9d34 c4bd bdd8 b6bd 5190 763e f56f e73e
00000080: 5068 4bbf 6e20 febe 6c96 eb3b e3cb fd3e
00000090: 2d16 303f f726 943e 818f aebe e7a9 363f
000000a0: b173 593f 216e 523f ce69 993b a06c d33e
000000b0: 3067 dd3e 6868 4c3f 9296 9f3e 0b4c 39bd
000000c0: e859 503e df38 87bc ce19 ac3e ec6a 913f
000000d0: 9709 393e 0915 443f 4af5 0dbe 3e56 5dbd
000000e0: 29f0 31be d4ae 2abe de86 2c3f e4ed 51be
000000f0: 84c3 883f 1022 d6bd d9ca 473f 90c3 a53d

value.weight f4 [1, 64]
-0.062152613 0.30517247 -0.025991904 0.010928375 0.028219178 0.013183104 0.052284293 -0.10194236
-0.035920963 0.13122256 -0.060694583 -0.08074829 -0.030828083 -0.13928784 0.05201313 -0.052578233
-0.034159385 -0.03235552 -0.16039582 -0.015637593 -0.11108986 -0.04159365 -0.015647586 -0.029194653
-0.056873478 0.027973609 -0.081721425 0.032619964 0.005289433 -0.13569933 0.16011953 -0.360004
-0.24305265 0.012591563 0.0056013386 -0.03319872 -0.14524469 -0.26383066 0.029787542 -0.127584
0.2708931 -0.15577146 -0.112136245 -0.4223561 -0.033455122 -0.16080554 0.046716806 -0.013297268
-0.03741855 0.057090033 -0.044658255 0.3788682 -0.12395272 -0.12252242 -0.027418535 -0.018252272
-0.030077009 -0.021565983 -0.115808085 -0.039682012 0.42098278 -0.013015166 -0.15874809 0.02644232
00000000: bd93 7ebd 913f 9c3e f9ec d4bc ed0c 333c
00000010: e82b e73c f2fd 573c 0e28 563d 28c7 d0bd
00000020: dc21 13bd 355f 063e e29a 78bd 5c5f a5bd
00000030: 2d8b fcbc 79a1 0ebe b80b 553d 465c 57bd
00000040: b6ea 0bbd 3987 04bd cd3e 24be 691a 80bc
00000050: 1583 e3bd 1a5e 2abd 5e2f 80bc a029 efbc
00000060: 2af4 68bd e928 e53c 905d a7bd 839c 053d
00000070: fb52 ad3b c4f4 0abe 60f6 233e 7252 b8be
00000080: cbe2 78be d84c 4e3c 6f8b b73b 62fb 07bd
00000090: 06bb 14be d014 87be 0105 f43c 61a5 02be
000000a0: 80b2 8a3e 8e82 1fbe b0a7 e5bd 0f3f d8be
000000b0: 3d08 09bd 35aa 24be 1f5a 3f3d c9dc 59bc
000000c0: 3244 19bd 3dd7 693d 93eb 36bd 03fb c13e
000000d0: ecda fdbd 09ed fabd d69c e0bc ca85 95bc
000000e0: 0f64 f6bc 25ab b0bc ca2c edbd 9b89 22bd
000000f0: 0e8b d73e 903d 55bc dc8e 22be 909d d83c
