ppo_actor.pth (torch, 646742 bytes, 9 tensors)

log_std f4 [4]
0	0xbf812013	-1.0087913
1	0xbfa4f9e8	-1.2888765
2	0xbf055937	-0.52089256
3	0xbf4b30d2	-0.7937137

fc1.weight f4 [512, 24]
0	0xbdbd6e64	-0.09249571
1	0x3e2fa991	0.17154528
2	0xbe34ede6	-0.17668876
3	0xbeb2dd40	-0.34934425
4	0xbe52a6f6	-0.20571503
5	0xbdbb0cbc	-0.09133288
6	0x3e10dee8	0.14147532
7	0xbd5f4798	-0.054511636
8	0x3da9cf86	0.08291535
9	0x3e2ca2d6	0.16858992
10	0x3c84b574	0.016199805
11	0x3e033ea4	0.12816864
12	0x3c3afe72	0.011413204
13	0xbd9edf2c	-0.077574104
14	0x3ab0c7e5	0.0013487308
15	0xbe02eff7	-0.12786852
16	0x3d006640	0.031347513
17	0x3df5ba67	0.11998444
18	0xbdde9be3	-0.10869577
19	0xbd1c4267	-0.038149264
20	0xbddc4f4a	-0.10757311
21	0xbe4afca7	-0.19822942
22	0xbcc876e8	-0.024470761
23	0x3e2172fa	0.15766516
24	0x3e10d6ab	0.1414439
25	0xbd18e34c	-0.037326142
26	0x3dcafafa	0.09911151
27	0x3e73af46	0.2379733
28	0x3e386c34	0.18010026
29	0xbd152f57	-0.0364221
30	0x3eb4ba64	0.35298455
31	0xbe236e7a	-0.15960112
32	0x3dcce1d3	0.1000401
33	0x3d85e18f	0.065371625
34	0x3e258c8a	0.16166893
35	0x3ddc5df5	0.107601084
36	0xbd677d9e	-0.056516282
37	0xbe13040c	-0.14357013
38	0x3d7cf245	0.061754484
39	0xbd9e05fa	-0.07715984
40	0xbc35a168	-0.0110858455
41	0x3dba9cbd	0.09111927
42	0x3d681f8f	0.05667072
43	0x3dd780d4	0.10522619
44	0xbbfcf6e5	-0.007719862
45	0x3d9d1c49	0.076714106
46	0xbe3e3af7	-0.18577181
47	0xbe2d33c7	-0.16914283
48	0x3deb4061	0.11486889
49	0xbe085359	-0.13313045
50	0xbdbd90a7	-0.09256106
51	0xbd9e0ef3	-0.07717695
52	0xbd31d692	-0.04341752
53	0xbe20fae2	-0.15720704
54	0x3e027527	0.12740003
55	0xbd15eae2	-0.036600955
56	0x3ce37f8d	0.027770782
57	0x3dc08335	0.09400026
58	0xbe26a032	-0.16272047
59	0xbec2740c	-0.37979162
60	0x3d180f26	0.03712382
61	0xbe4a9c47	-0.19786178
62	0x3e4443ad	0.19166441
63	0x3dc36bb7	0.09542029
64	0x3d9d3929	0.07676918
65	0x3d2d610e	0.042328887
66	0x3dddb19e	0.108248934
67	0x3e4af006	0.19818124
68	0xbbabf559	-0.0052477536
69	0x3e0467ff	0.12930296
70	0xbd9fd264	-0.07803801
71	0xbe1a6cb4	-0.1508053
72	0xbe29c734	-0.16579896
73	0x3bea02c1	0.0071414416
74	0x3e7d9762	0.24764779
75	0x3e255030	0.1614387
76	0xbdd365bf	-0.10322141
77	0xbd83de48	-0.06438881
78	0x3ea5d9e5	0.32392803
79	0xbd90c168	-0.07068139
80	0xbda096fd	-0.07841299
81	0xbc9f4bb1	-0.019445272
82	0xbd53fbdd	-0.051753867
83	0xbe856616	-0.26054448
84	0xbdeff5ad	-0.11716781
85	0x3cd47cb0	0.025938362
86	0x3e01e9f2	0.126869
87	0xbd8dd856	-0.069260284
88	0x3dc2ed58	0.09517926
89	0x3e07e2b0	0.13270068
90	0xbdc6b635	-0.09702722
91	0x3d93cfcc	0.072173685
92	0xbe518b1b	-0.20463221
93	0x3cdf4270	0.02725336
94	0x3cbaa522	0.02278382
95	0x3d9e1c71	0.077202685
96	0xbe3df11b	-0.18549006
97	0xbe682aa7	-0.2267252
98	0xbce79413	-0.02826885
99	0xbc669575	-0.014073719
100	0xbccc4eff	-0.024940012
101	0x3dccd6fd	0.10001943
102	0x3e6d72e3	0.23188357
103	0xbe7b16bc	-0.24520391
104	0xbe8a719d	-0.27039805
105	0xbd27686a	-0.04087106
106	0x3e442cd0	0.1915772
107	0x3e166163	0.14685588
108	0x3cc372de	0.023858484
109	0x3e77198e	0.24130842
110	0x3e88ba46	0.26704615
111	0xbc89304b	-0.01674666
112	0x3dd9c60d	0.10633478
113	0xbad55f3e	-0.0016278995
114	0x3d5083ff	0.05090713
115	0xbbf9c23e	-0.0076220324
116	0x3e8db7cf	0.27679297
117	0x3c639f84	0.013893012
118	0xbb1f24b3	-0.002428335
119	0xbdec8f38	-0.11550754
120	0xbe43f718	-0.19137228
121	0xbdd11824	-0.102096826
122	0xbd090ddc	-0.033460483
123	0xbdf154de	-0.11783765
124	0xbe17720b	-0.14789598
125	0x3e1d74c0	0.15376568
126	0xbe42d187	-0.19025241
127	0x3cdf555b	0.02726238
128	0x3d450736	0.04810258
129	0x3dbefa20	0.09325051
130	0x3e488074	0.19580251
131	0xbe277bd5	-0.16355832
132	0x3e2cd166	0.16876754
133	0xbde49c15	-0.11162583
134	0x3e26a334	0.16273195
135	0xbd2c5b87	-0.042079475
136	0x3df288f5	0.11842529
137	0xbe04fee1	-0.12987854
138	0x3e19a1e8	0.15003169
139	0x3e054824	0.130158
140	0x3dd540b7	0.10412734
141	0x3dfd9eba	0.1238379
142	0xbe14d722	-0.14535192
143	0xbe37eb43	-0.17960839
144	0xbe601f2a	-0.21886888
145	0x3d9f4f5a	0.07778807
146	0x3d13601b	0.035980325
147	0x3dc58a65	0.09645537
148	0x3e4bbe1c	0.1989674
149	0xbcce4ef6	-0.025184136
150	0x3df0a8dd	0.11750958
151	0xbc0cf3f4	-0.008603085
152	0xbe5668a9	-0.20938362
153	0xbd8ce880	-0.06880283
154	0x3ddc574a	0.107588366
155	0xbe9a51ad	-0.3014044
156	0xbe58850b	-0.21144502
157	0xbd43a2f0	-0.04776281
158	0x3e3163c7	0.17323218
159	0xbdab3f13	-0.0836164
160	0x3e320566	0.17384872
161	0x3dae5a1f	0.08513283
162	0x3e32e325	0.17469461
163	0x3dc5ef10	0.09664738
164	0xbdd48923	-0.10377719
165	0xbd7c98b1	-0.061669055
166	0x3dccc454	0.09998384
167	0xbda5b132	-0.08090438
168	0x3e3d8cfa	0.1851081
169	0xbdfe289a	-0.12410088
170	0xbd2accd0	-0.04169923
171	0x3de79522	0.11307742
172	0x3e100485	0.14064224
173	0xbd43e830	-0.047828853
174	0xbe68257a	-0.22670546
175	0xbd58d4e5	-0.052937407
176	0x3e5d7df9	0.21630086
177	0xbe63a547	-0.22231017
178	0x3b92865e	0.004471584
179	0xbc84cb28	-0.016210154
180	0x3df33311	0.118749745
181	0x3e05e0fd	0.13074107
182	0x3e47cfa4	0.19512802
183	0x3e531f0d	0.20617314
184	0x3e041649	0.12899126
185	0x3e39bfc2	0.18139556
186	0xbe33e97c	-0.17569536
187	0xbe0a79b3	-0.13522987
188	0x3cd7816c	0.02630683
189	0xbe39fa82	-0.18161967
190	0xbe3b550e	-0.18294165
191	0x3e1d2112	0.15344647
192	0xbd3bb790	-0.045829356
193	0xbd18f672	-0.037344404
194	0x3dfe4f94	0.12417522
195	0xbe46552e	-0.19368431
196	0xbe0d33c8	-0.13789284
197	0x3c912c50	0.017721325
198	0xbea7b7be	-0.32757372
199	0x3d9e4d7f	0.07729625
200	0xbd51c781	-0.051215652
201	0xbcf1db67	-0.029523565
202	0x3c410c43	0.011782709
203	0xbde56a5b	-0.11201926
204	0x3dc5478e	0.096327886
205	0xbcdf159e	-0.027231988
206	0x3ddc0ac2	0.107442394
207	0xbde6fb1f	-0.11278366
208	0xbd8ee94f	-0.06978094
209	0xbe011a81	-0.12607767
210	0x3e35affd	0.17742915
211	0xbe3b8568	-0.18312609
212	0xbe1caf90	-0.15301347
213	0x3d0c019f	0.034181233
214	0x3d86e847	0.06587272
215	0x3e0d5feb	0.13806121
216	0xbe75cf22	-0.24004796
217	0xbc2bade4	-0.0104784705
218	0x3e0de7ff	0.1385803
219	0xbe595c30	-0.21226573
220	0xbdace066	-0.08441238
221	0xbd659470	-0.056049764
222	0xbd1b2e67	-0.03788605
223	0x3d0121eb	0.031526487
224	0x3df5a941	0.11995173
225	0x3999067e	0.0002918727
226	0xbe005f68	-0.12536395
227	0xbeaef298	-0.3416946
228	0xbdc60d5b	-0.09670516
229	0x3ca5299c	0.020161442
230	0x3e52ce78	0.20586574
231	0x3d9026f5	0.070386805
232	0x3df348c4	0.11879113
233	0xbdc22125	-0.09478978
234	0xbd5ad320	-0.053424
235	0x3e1c7e9b	0.15282671
236	0x3e22f098	0.15912092
237	0x3dc49cc7	0.096002154
238	0xbd2f6bf9	-0.04282758
239	0x3cb1a7e4	0.021686502
240	0xbe0dacc8	-0.13835442
241	0x3dc05fb4	0.09393254
242	0x3e403f92	0.1877425
243	0x3cae9808	0.021312729
244	0xb83f91fd	-4.567391e-05
245	0x3d096296	0.033541285
246	0xbe257917	-0.16159473
247	0x3e26cf0b	0.16289918
248	0xbd956192	-0.07294001
249	0xbe3c8e13	-0.18413572
250	0xbe2e5991	-0.17026354
251	0xbd9aea23	-0.07564189
252	0xbe0f23dd	-0.13978525
253	0x3ca189a2	0.019718949
254	0x3d538172	0.05163712
255	0x3d9eb4b8	0.07749313

fc1.bias f4 [512]
0	0x3d1581ba	0.03650067
1	0x3e1364ac	0.14393872
2	0xbafb7846	-0.0019185625
3	0x3e0a2400	0.13490295
4	0xbd8a5e25	-0.06756238
5	0xbd0ce755	-0.034400303
6	0xbd2a0b8f	-0.04151493
7	0x3e00b117	0.12567554
8	0x3d42157a	0.047383763
9	0xbe24a7bc	-0.1607961
10	0xbe4e921e	-0.20172927
11	0x3d23bb23	0.03997339
12	0x3d0e4ba9	0.034740124
13	0xbd3cefed	-0.04612725
14	0xbe3880c3	-0.18017869
15	0xbe61f0a6	-0.22064456
16	0xbe20ed19	-0.15715446
17	0xbe34df78	-0.17663372
18	0x3e02e026	0.12780818
19	0x3d95143d	0.07279251
20	0xbd0fc166	-0.03509655
21	0x3dcde291	0.1005298
22	0xbe1be382	-0.15223506
23	0x3d0502a8	0.032473236
24	0xbe414b36	-0.18876347
25	0x3df2360a	0.118267134
26	0xbe469caf	-0.19395708
27	0xbbf74879	-0.007546481
28	0xbcceddee	-0.025252309
29	0xbdb7633e	-0.08954476
30	0xbe3ed765	-0.18636854
31	0x3e13e7af	0.14443849
32	0x3d3ec199	0.046571348
33	0x3d95ff6a	0.07324107
34	0x3d9f1ee8	0.07769567
35	0x3d8b2c06	0.06795506
36	0x3ca73bb4	0.02041421
37	0xbd961469	-0.07328112
38	0x3d7df57d	0.062001694
39	0xbe394ee0	-0.18096495
40	0xbd9e841d	-0.07740042
41	0x3e25b633	0.16182785
42	0xbdb1ee94	-0.08688083
43	0x3dd0d4bc	0.10196826
44	0xbb764189	-0.0037575683
45	0xbd8a7aaf	-0.06761681
46	0x3e18813a	0.14893046
47	0x3cf4c085	0.029876957
48	0xbe413a1b	-0.18869822
49	0x3e18160d	0.14852162
50	0xbd36b5cd	-0.044606972
51	0xbd32ca99	-0.043650243
52	0xbde6fcf8	-0.11278719
53	0xbdf26398	-0.11835402
54	0xbcf1ddd7	-0.029524727
55	0xbe2a772e	-0.16647026
56	0x3e1c2a88	0.152506
57	0x3d1b4e61	0.037916545
58	0x3952ce32	0.00020103974
59	0x3e2859bb	0.1644048
60	0x3dae69d2	0.085162774
61	0xbd62b792	-0.055350848
62	0x3dc2f265	0.09518889
63	0x3e0e3a37	0.13889395
64	0xbd2fa816	-0.04288491
65	0xbb3c5dab	-0.0028742354
66	0x3e2f8b0c	0.17142886
67	0xbdbf664a	-0.09345682
68	0xbe051393	-0.12995748
69	0x3e46b863	0.19406275
70	0x3b96e04f	0.0046043764
71	0x3dab8007	0.08374029
72	0x3e0d8485	0.13820083
73	0xbd05b7fe	-0.03264617
74	0x3d62e6d1	0.055395905
75	0x3dd15a5a	0.10222311
76	0xbdee4bef	-0.11635577
77	0xbde5c3f7	-0.11219018
78	0xbb8c6b72	-0.0042852694
79	0xbc8f1291	-0.017464908
80	0xbe155de2	-0.14586595
81	0x3e2412c1	0.16022779
82	0xbdcc47a7	-0.09974604
83	0x3c7e71ef	0.015530094
84	0x3df032e7	0.11728459
85	0xbd8a63ef	-0.06757342
86	0xbe3bf7ae	-0.18356201
87	0x3e268c5a	0.16264477
88	0x3c8fc54c	0.017550133
89	0x3b9d3da2	0.004798607
90	0x3d9500e1	0.07275558
91	0x3e0eecae	0.13957474
92	0x3de0fe6c	0.10986027
93	0xbd045971	-0.03231186
94	0x3d9b49ba	0.075824216
95	0xbdc12b97	-0.09432142
96	0x3e2853a7	0.16438161
97	0x3d9f4efc	0.07778737
98	0xbcd45548	-0.025919572
99	0x3d813d48	0.063105166
100	0x3df35994	0.1188232
101	0x3c6ce6fd	0.014459369
102	0x3e0f2709	0.13979734
103	0x3e016055	0.12634404
104	0xbdd7d47b	-0.10538574
105	0xbdceeaa0	-0.10103345
106	0x3e32a174	0.17444402
107	0xbe2740df	-0.1633334
108	0xbc3c46fc	-0.011491533
109	0x3d03d6ea	0.03218738
110	0xbd6a619c	-0.057221994
111	0xba9e82d5	-0.0012093434
112	0xbdac3dd9	-0.08410234
113	0x3dd2729c	0.10275766
114	0xbdf51182	-0.1196623
115	0x3d07c513	0.03314693
116	0x3e069619	0.13143195
117	0x3d59dede	0.05319106
118	0xbd8b9ef4	-0.06817427
119	0xbde4abe6	-0.111655995
120	0x3e28a046	0.1646739
121	0xbe3a1204	-0.18170935
122	0xbe3b87b7	-0.1831349
123	0xbe37b938	-0.17941749
124	0xbd7d9dc8	-0.06191805
125	0x3d2d9f26	0.042388104
126	0xbdadfb1b	-0.0849516
127	0xbe22520e	-0.15851614
128	0xbe35188e	-0.17685148
129	0x3dd7608c	0.10516462
130	0x3c2f7731	0.01070957
131	0xbd9d2f22	-0.076750055
132	0x3d5fbe49	0.05462483
133	0xbdf00edb	-0.117215835
134	0xbdfa4556	-0.12220256
135	0x3d4d6b91	0.05015141
136	0xbd6c37ec	-0.05767052
137	0xbd497ccc	-0.04919128
138	0xbe1f7c2e	-0.15574715
139	0x3dfa8145	0.122316875
140	0x3e3a2b8c	0.18180674
141	0xbe4c8eb4	-0.19976312
142	0x3dffd41a	0.12491627
143	0x3d832389	0.06403262
144	0x3e0dad4e	0.13835642
145	0xbd0134a0	-0.031544328
146	0x3d890d2e	0.06691967
147	0xbdcab525	-0.09897832
148	0x3dd4dfc8	0.103942454
149	0x3bd9ff87	0.0066527757
150	0xbe2f16df	-0.17098568
151	0x3e2abfe1	0.16674758
152	0xbdd34afd	-0.10317037
153	0xbd839173	-0.064242266
154	0x3e453516	0.19258532
155	0xbe18f31b	-0.14936487
156	0x3d0888b4	0.033333495
157	0x3de78cde	0.11306165
158	0xbd4ff24f	-0.050768193
159	0xbd74db77	-0.05977961
160	0xbd5d8108	-0.054078132
161	0x3cf8a668	0.030352786
162	0x3d7332e0	0.05937469
163	0xbde92ace	-0.113851175
164	0xbdc6c701	-0.09705926
165	0xbcd62498	-0.026140496
166	0x3d70e8d5	0.058815796
167	0x3d3eed8e	0.04661327
168	0x3d97c2ff	0.074102394
169	0xbd1b9295	-0.03798159
170	0x3d855870	0.06511009
171	0xbd1c24e6	-0.038121127
172	0xbdd12d91	-0.10213769
173	0xbe2a95ee	-0.16658756
174	0x3e322d57	0.17400108
175	0x3d94b489	0.07260997
176	0x3e3ffee2	0.18749574
177	0x3d193b78	0.03741023
178	0xbe33d93d	-0.17563339
179	0xbe2b4ad4	-0.16727763
180	0xbdc198e2	-0.09452988
181	0xbe30045a	-0.1718916
182	0x3db2caf8	0.087301195
183	0x3e3e8a97	0.18607555
184	0xbe1f0a99	-0.15531386
185	0x3dfdc97b	0.12391945
186	0xbdad41f8	-0.08459848
187	0xbe73fc92	-0.23826817
188	0xbe3fddb7	-0.18736921
189	0x3c35536a	0.011067251
190	0x3e0315bb	0.12801258
191	0xbe20eba0	-0.15714884
192	0x3e3482de	0.17628047
193	0xbde21563	-0.110392354
194	0x3de9c65d	0.11414788
195	0xbda86228	-0.08221847
196	0x3dda0625	0.10645703
197	0x3dcdd4f2	0.10050382
198	0xbdaa5866	-0.08317642
199	0xbd54456f	-0.05182403
200	0xbe214115	-0.15747483
201	0x3df77b79	0.120840974
202	0xbccd8ab1	-0.025090547
203	0xbe1ea968	-0.15494311
204	0xbd564e39	-0.052320693
205	0xbd6af7c6	-0.0573652
206	0xbd24fc1e	-0.0402795
207	0xbdff9d5a	-0.12481184
208	0x3e2a62c2	0.16639236
209	0xbd907bda	-0.07054873
210	0xbddb3d64	-0.10705069
211	0x3dbabae0	0.09117675
212	0xbe31226e	-0.1729829
213	0x3e017069	0.12640537
214	0x3e316736	0.17324528
215	0xbe2c5a79	-0.16831388
216	0x3da139f0	0.07872379
217	0x3db5653b	0.08857199
218	0xbe348c40	-0.17631626
219	0xbe547a92	-0.20749882
220	0x3e13352c	0.14375752
221	0x3e1730ec	0.14764756
222	0xbe31febd	-0.17382331
223	0xbdc03382	-0.09384824
224	0xbdd5a605	-0.10432056
225	0x3e373a85	0.17893417
226	0xbe3cdfbd	-0.18444724
227	0x3db4020b	0.08789452
228	0x3c6f01c6	0.014587825
229	0x3e2ee21c	0.17078441
230	0x3df99258	0.12186116
231	0xbe5ba659	-0.21450175
232	0x3b13e468	0.002256656
233	0x3e1f33f7	0.15547167
234	0x3d51079e	0.051032655
235	0x3e3e0c36	0.18559346
236	0x3e085461	0.13313438
237	0xbe22bc5f	-0.1589217
238	0xbe8036b3	-0.25041732
239	0xbdddc421	-0.10828424
240	0xbe5362df	-0.20643185
241	0x3de987ba	0.11402841
242	0xbd74daf0	-0.059779108
243	0x3dd075e2	0.10178734
244	0xbe1fd6cd	-0.15609284
245	0x3d272f34	0.0408165
246	0xbd28c701	-0.04120541
247	0xbcd4307c	-0.025902025
248	0xbddb8aaa	-0.107198074
249	0x3d8d081a	0.06886311
250	0x3de58ca7	0.11208468
251	0xbd9f3201	-0.07773209
252	0xbe05ffe3	-0.13085894
253	0xbd05dfeb	-0.032684248
254	0xbe57915d	-0.21051545
255	0xbdcbf138	-0.09958118

fc2.weight f4 [256, 512]
0	0xbc9df0ed	-0.019279921
1	0xbd1e4b07	-0.03864577
2	0x3d2db538	0.04240915
3	0xbd25cf58	-0.04048094
4	0xbdded2d5	-0.10880057
5	0x3ca6da2c	0.020367704
6	0xbd7a226e	-0.06106799
7	0x3bb35817	0.0054731476
8	0x3d5ddc23	0.054165017
9	0x3d1c7b4e	0.03820353
10	0xbaa66adc	-0.0012696641
11	0x3d625b5a	0.0552629
12	0xbaf68565	-0.0018808065
13	0xbdad771b	-0.08469983
14	0xbd135d99	-0.035977934
15	0x3c018470	0.007905111
16	0xbbc0021b	-0.005859626
17	0xbc389c0c	-0.011267673
18	0xbdc35c3a	-0.09539075
19	0x3c3a2362	0.011360975
20	0xbc2cdb0d	-0.010550273
21	0xbd507aad	-0.050898243
22	0xbc1d44c1	-0.009598912
23	0xbd9900e0	-0.0747087
24	0x3b66c8bf	0.003521487
25	0x3d0fca46	0.035105012
26	0xbc6ee377	-0.014580599
27	0xbd13a046	-0.03604152
28	0xbc8570ae	-0.016289081
29	0xbc4eb331	-0.012615965
30	0xbc8e0896	-0.017338078
31	0x3d2aa2c7	0.041659143
32	0x3d41be78	0.047300786
33	0xbca5a61e	-0.020220812
34	0x3bb93690	0.0056522563
35	0x3d219078	0.039444417
36	0x3d5aef37	0.05345079
37	0x3d435463	0.0476879
38	0x3c293170	0.010326728
39	0xbc13e3ec	-0.009026509
40	0xbd44332c	-0.047900364
41	0xbd94c521	-0.07264162
42	0xbddb8d7d	-0.10720346
43	0xba277aee	-0.00063888624
44	0xbc89ff34	-0.016845323
45	0xbc32e9fd	-0.010920045
46	0xbd01a678	-0.031652898
47	0xbd9c6f41	-0.076384075
48	0xbdaef7cb	-0.085433565
49	0x3ca3ff9a	0.020019341
50	0x3d23847d	0.039921273
51	0x3d3aa35c	0.045565948
52	0x3d990fe3	0.07473733
53	0x3cb5909d	0.022163684
54	0xbcc1a4d0	-0.023638159
55	0x3cc66fb7	0.024223192
56	0x3c919cb2	0.017774913
57	0x3d6b01bf	0.057374712
58	0x3ca1ae82	0.019736532
59	0xbddf88d3	-0.10914769
60	0x3cca3aa9	0.024686174
61	0xbc23e6e3	-0.010003778
62	0x3d20dbc9	0.039272103
63	0xbd284b52	-0.041087456
64	0x3a98dc5c	0.0011662352
65	0x3cee6eb0	0.029105514
66	0xba2eb1f8	-0.00066640927
67	0xbd1355a4	-0.035970345
68	0x3d5cc9fd	0.05390357
69	0x3db2a185	0.08722214
70	0x3cbf549e	0.023355778
71	0x3bb0bb03	0.0053933873
72	0xbdc2eb5e	-0.09517549
73	0x3b978dc4	0.004625054
74	0xbbf7cf3d	-0.0075625465
75	0x3d012e84	0.0315385
76	0xbc2ee309	-0.010674247
77	0xbdb144fd	-0.086557366
78	0xbc09782e	-0.0083904695
79	0x3d30c812	0.043159552
80	0x3c6e14e7	0.014531351
81	0x3d4081b6	0.046998702
82	0x3cf08cb3	0.029363966
83	0x3b93a05d	0.004505201
84	0xbc21ee5f	-0.009883492
85	0x3dad572d	0.08463893
86	0xbc2bfdbf	-0.0104975095
87	0x3c21a3fc	0.009865757
88	0x3d78eff7	0.060775723
89	0xbd4c0660	-0.049810767
90	0xbc0696e7	-0.008214689
91	0x3c9c2317	0.0190597
92	0xbc9faad3	-0.019490635
93	0xbd373615	-0.04472931
94	0xbc3705ea	-0.011170844
95	0x3d2c79b7	0.042108264
96	0x3c815e22	0.015791956
97	0xbc29feb1	-0.010375665
98	0xbcf1cf0f	-0.029517679
99	0x3cb59181	0.022164108
100	0x3da368f4	0.079790026
101	0xbd036793	-0.032081198
102	0x3c79e358	0.015251957
103	0xbda4f5a7	-0.08054667
104	0xbd204381	-0.039126877
105	0xbdcb20eb	-0.09918388
106	0xbd431a00	-0.047632217
107	0x38e195f7	0.00010756769
108	0xbb9814ad	-0.0046411366
109	0xbccf12b1	-0.025277467
110	0xbd1f62ce	-0.038912587
111	0x3bbd89c8	0.005784247
112	0x3ce27ecc	0.027648352
113	0x3dd6917c	0.10476968
114	0xbd55fadb	-0.052241188
115	0x3cb2c6bf	0.021823285
116	0x3c7284ef	0.014802202
117	0x3bab0f4f	0.005220331
118	0xbb3c0fdc	-0.0028695976
119	0x3c402a80	0.011728883
120	0xbdb80bff	-0.08986663
121	0x3cd1ab7b	0.025594464
122	0xbd349928	-0.044091374
123	0x3c49ea96	0.012323996
124	0xbc9a5e71	-0.018843861
125	0xbc0b0088	-0.008484013
126	0x3d889615	0.06669251
127	0x3adfa609	0.0017063032
128	0xbcfdba4c	-0.030972622
129	0xba46c6c7	-0.0007582721
130	0xbca1e3c1	-0.019761922
131	0xbb9b04ed	-0.004730812
132	0x3cd90063	0.026489442
133	0xbce48552	-0.027895603
134	0x3d9de3bf	0.07709455
135	0x3cc794a8	0.024362877
136	0xbd033133	-0.032029342
137	0x3cdcf37d	0.026971573
138	0x3c17841f	0.009247809
139	0xbcc7eac0	-0.02440393
140	0xbb71dc87	-0.0036905126
141	0x3d2e51c4	0.042558447
142	0x3d2fe3e1	0.04294193
143	0xbda996f0	-0.08280742
144	0x3d02ee85	0.03196575
145	0x3d809089	0.06277568
146	0xb9e72efa	-0.00044094754
147	0x3d17e155	0.037080128
148	0x3bf0d68d	0.007349795
149	0x3c687632	0.014188336
150	0xbca67547	-0.020319594
151	0xbdd77784	-0.10520843
152	0xbdce0391	-0.10059274
153	0xbd8961d9	-0.06708116
154	0xbde4cfab	-0.11172422
155	0x3d4fe55b	0.05075584
156	0xbb63ee14	-0.0034779357
157	0x3c24bc4f	0.010054662
158	0xbd88b2a7	-0.066747
159	0xbd2771ee	-0.040880136
160	0x3d68d667	0.056845095
161	0xbcd451d3	-0.025917923
162	0xbd1433fb	-0.036182385
163	0xbd51b6be	-0.051199667
164	0xbd3609f8	-0.0444431
165	0xbbf8c0a7	-0.0075913253
166	0xbd887350	-0.06662619
167	0x3c5a04bb	0.013306792
168	0xbcb8cbf7	-0.022558196
169	0xbc0c07c3	-0.008546772
170	0x3cc26c10	0.023733169
171	0xbd7a7a4c	-0.061151788
172	0x3d0e6339	0.034762595
173	0x3d1b4124	0.03790392
174	0xbd9c5984	-0.07634261
175	0xbd877642	-0.06614353
176	0xbd13dd70	-0.03609985
177	0xbc692710	-0.014230505
178	0x3d59030f	0.052981433
179	0x3e0baf79	0.13641156
180	0xbd36a581	-0.04459143
181	0x3d6d6ae6	0.057963274
182	0xbd9604fb	-0.07325169
183	0xbdc69ddd	-0.09698079
184	0xbd8dd484	-0.069253
185	0x3b888826	0.004166621
186	0xbc96423c	-0.01834213
187	0xbd89ff3c	-0.06738135
188	0xbd217b6a	-0.039424337
189	0x3c3bc56e	0.011460645
190	0xbcdc3316	-0.026879828
191	0x3d557432	0.052112766
192	0x3a96e0a5	0.0011511041
193	0xbd42e21e	-0.047578923
194	0xbdca012e	-0.09863506
195	0xbd7ff288	-0.062487155
196	0xbdb2c4a2	-0.08728911
197	0xbd12893b	-0.035775404
198	0x3d40b8b6	0.047051154
199	0x3d298924	0.041390553
200	0xbd293f88	-0.041320354
201	0xbccc97c4	-0.024974711
202	0x3c88c5b6	0.016695838
203	0x3d648abe	0.055796377
204	0x3bfc52d4	0.0077003036
205	0x3ccf8b4d	0.025334978
206	0xbc2a8d41	-0.010409654
207	0xbd16a36e	-0.036776952
208	0xbd09aa20	-0.03360951
209	0x3ceed8b9	0.029156076
210	0xbca87e59	-0.02056806
211	0xbd51ba53	-0.051203083
212	0xbd2b2f0b	-0.04179291
213	0xbb9e4c41	-0.0048308675
214	0x3c93240d	0.017961526
215	0xbe02aabc	-0.12760442
216	0x3d5e70e2	0.054306872
217	0x3d5cd139	0.053910468
218	0xbc8188cb	-0.015812298
219	0xbc994caa	-0.018713314
220	0x3ceb7a47	0.02874483
221	0x3c87eb03	0.016591555
222	0xbc4c0aa7	-0.012453712
223	0xbdcb58e4	-0.09929064
224	0xbdb97def	-0.09057223
225	0xbdecf09f	-0.11569332
226	0x3df86990	0.121295094
227	0xbc68e62f	-0.014215036
228	0xbd7e7b85	-0.062129516
229	0xbba2e4f6	-0.004971142
230	0x3c7e6d79	0.01552903
231	0xbc6fdae6	-0.014639592
232	0xbd74673e	-0.059668772
233	0x3d1021a2	0.035188325
234	0xbd54dc44	-0.051967874
235	0x3d1480ee	0.03625577
236	0xbd05563f	-0.032552954
237	0xbd15e40b	-0.03659443
238	0x3b4a0f8b	0.0030832018
239	0x3c922573	0.017840123
240	0x3d06e881	0.032936577
241	0xbba2406a	-0.0049515264
242	0xbd46ea05	-0.048563022
243	0xbe06f505	-0.13179405
244	0x3cc53137	0.024071319
245	0xbcfee6a6	-0.031115841
246	0x3d08df58	0.033416122
247	0xbd8687aa	-0.065688446
248	0x3c67818a	0.014130006
249	0xbb87d093	-0.004144737
250	0xbd0b709b	-0.034042936
251	0xbb2281b7	-0.0024796554
252	0xbccfd2e7	-0.02536912
253	0xbc951254	-0.018197216
254	0x3c247bb3	0.010039258
255	0xbd86598f	-0.06560051

fc2.bias f4 [256]
0	0x3c87352b	0.016504845
1	0x3c41969f	0.011815696
2	0x3c9c2405	0.019060144
3	0xbbcd2441	-0.0062604253
4	0xbb82830e	-0.003982908
5	0xbcf32d48	-0.029684678
6	0xbcfa4c95	-0.030554095
7	0x3ce01282	0.027352575
8	0x3d1b7f44	0.037963167
9	0xbc65be4e	-0.014022423
10	0x3cd40043	0.025879031
11	0x3d2affd5	0.041747887
12	0xbd05ce8f	-0.032667693
13	0xbb56db1e	-0.0032784413
14	0xbd3fe87e	-0.04685258
15	0x3cbf18a4	0.02332718
16	0x3cd29eef	0.025710551
17	0xbcc502c7	-0.024049176
18	0xbbea1f67	-0.0071448567
19	0xbc540539	-0.012940698
20	0xbd0676d1	-0.032828156
21	0xbd7b7f06	-0.061400436
22	0x3ba2b923	0.0049659177
23	0x3cb51213	0.022103345
24	0xbd368d15	-0.04456814
25	0xbbdca44c	-0.006733453
26	0xbcd7a91e	-0.026325759
27	0xbc55873d	-0.013032732
28	0x3a3c6a9a	0.0007187516
29	0x3ccae5e2	0.02476782
30	0xbd4657f9	-0.04842374
31	0xbd193664	-0.037405387
32	0xbc616cb5	-0.013758828
33	0xba044fe0	-0.00050473027
34	0xbd5aa65e	-0.053381316
35	0xbd069a48	-0.032861978
36	0xbb2ed702	-0.0026678448
37	0x3ca3a487	0.019975914
38	0xbc3acfb0	-0.011402056
39	0xbcb3cb35	-0.021947483
40	0x3b24e30a	0.002515974
41	0xbd02d834	-0.03194447
42	0xbd095b8a	-0.033534564
43	0xbc9df0a5	-0.019279787
44	0x3ae1dd3d	0.0017232072
45	0x3cd26e8d	0.02568748
46	0xbd1c77f6	-0.03820034
47	0x3d3c5347	0.045977857
48	0xbd2a4604	-0.04157068
49	0xbcb08330	-0.02154693
50	0x3aedf8f9	0.0018155865
51	0x3d263e3f	0.040586706
52	0x3ca2c7ac	0.019870602
53	0x3c7179d1	0.014738516
54	0xbc4e7aa2	-0.01260248
55	0x3cc2b4f0	0.023767918
56	0x3c9f6a25	0.019459793
57	0xbbe9d9d8	-0.0071365647
58	0x3cb4214c	0.021988533
59	0x3cff6354	0.031175293
60	0x3c8ec5a1	0.017428221
61	0xbc81e359	-0.015855478
62	0x3bdf1c6b	0.0068088076
63	0xbd1a0173	-0.03759904
64	0x3ce7a7d0	0.028278261
65	0x3b033a72	0.002002385
66	0x3cc14682	0.023593191
67	0xbca8fb78	-0.020627722
68	0x3cc16051	0.023605498
69	0x3d389ee8	0.04507342
70	0x3cc9d4e9	0.024637656
71	0x39179f05	0.00014459722
72	0xbd21ee10	-0.039533675
73	0xbccda379	-0.025102364
74	0xbc8ff4c1	-0.017572762
75	0xbca2afdf	-0.019859252
76	0x3d3dc308	0.046328574
77	0x3c6664f8	0.014062159
78	0x3b057b45	0.0020367664
79	0xbc602a1f	-0.013681917
80	0xbcfd103e	-0.030891534
81	0x3d12708b	0.03575186
82	0xbc80b4c9	-0.015711205
83	0xbc92f001	-0.017936708
84	0xbcacb377	-0.02108167
85	0x3d2560f5	0.04037567
86	0xbd247485	-0.040150184
87	0x3ce3123b	0.027718654
88	0xbd719aa3	-0.058985364
89	0xbc4a2a0f	-0.012339129
90	0xbcbca4c3	-0.023027783
91	0x3c87241a	0.016496707
92	0x3b486e83	0.0030583448
93	0xbce57677	-0.02801059
94	0x3d56af52	0.052413292
95	0x3d1dbac8	0.038508207
96	0xbc0e6af0	-0.008692488
97	0xbcd60b1d	-0.026128346
98	0xbd2ace28	-0.041700512
99	0xbbc72589	-0.0060774726
100	0xbdb580a4	-0.08862427
101	0xbd12c55c	-0.035832748
102	0xbd15ba88	-0.036554843
103	0xbd560cfe	-0.052258484
104	0xbd3de24e	-0.0463584
105	0xbd4084cd	-0.04700165
106	0xbcac79a6	-0.0210541
107	0x3ca08942	0.0195967
108	0x3cc1d65e	0.023661789
109	0x3c293ac4	0.010328952
110	0xbd576b87	-0.05259278
111	0x3d5019b9	0.05080578
112	0x3c827386	0.015924226
113	0xbd4bc671	-0.049749795
114	0x3d0382d1	0.032107178
115	0xbd355f09	-0.044280086
116	0xbb89f4a1	-0.0042100702
117	0xb8c79580	-9.516906e-05
118	0xbb69c69d	-0.0035671361
119	0x3ccd084f	0.025028376
120	0xbd207138	-0.039170474
121	0x3c17b6e7	0.009259916
122	0x3c36085b	0.011110391
123	0xbbf8ea91	-0.007596322
124	0x3c6eb854	0.014570314
125	0xbaa6a69e	-0.0012714451
126	0x3c891490	0.016733438
127	0x3c945666	0.018107604
128	0x3d25bab8	0.040461272
129	0x3ca9466f	0.020663468
130	0x3c275f7c	0.010215636
131	0x3d3cf0b1	0.04612798
132	0xbd1a4356	-0.037661873
133	0x3b951ce9	0.0045505655
134	0x3b133c35	0.0022466306
135	0x3bb12baf	0.005406819
136	0xbd035264	-0.032060996
137	0x3d05d6f2	0.03267569
138	0xbcac5b53	-0.02103964
139	0xbd120b18	-0.03565511
140	0x3cfbf8f7	0.030758364
141	0x3d452299	0.048128698
142	0xbd2f0ea6	-0.04273858
143	0x3b269a69	0.0025421625
144	0xbd02d198	-0.031938165
145	0xbce4ef40	-0.027946115
146	0xbc6cf0ae	-0.014461679
147	0x3c97f2a1	0.018548312
148	0xbb6a5584	-0.0035756538
149	0xbab46640	-0.0013763383
150	0xbb9893f2	-0.0046563083
151	0xbc8cb324	-0.017175265
152	0x3cb5dd14	0.022200145
153	0xbc95e9b7	-0.01829992
154	0x3c911f27	0.01771505
155	0xbd13429b	-0.03595219
156	0xbcf579f1	-0.029965373
157	0xbc8b9997	-0.01704101
158	0xbc8a34fa	-0.016870964
159	0x3b405b00	0.0029351115
160	0xbce633a3	-0.028100794
161	0x3cf4e123	0.02989251
162	0xbc9521d7	-0.018204613
163	0xbc2fa71d	-0.010720995
164	0x3c847686	0.016169798
165	0x3c064dae	0.008197231
166	0x3b828060	0.0039825886
167	0xbba15809	-0.0049238247
168	0xbb55b1a6	-0.0032607107
169	0x3c6177e8	0.013761498
170	0xbca2c4a5	-0.019869158
171	0x3cdb98f6	0.026806336
172	0xbb5fc25f	-0.0034142954
173	0xbc8567dc	-0.016284876
174	0x3cd88bce	0.026433852
175	0x3cabe961	0.020985307
176	0xbd80925f	-0.06277918
177	0xbcebdc6e	-0.028791633
178	0xbc71a77b	-0.014749403
179	0x3c95df3f	0.018294929
180	0xbb53ae92	-0.0032300097
181	0x3cf326e7	0.029681636
182	0xbd0e2eeb	-0.034712713
183	0x3d0ee9e6	0.03489103
184	0x3b9f68e3	0.0048647984
185	0xbd429ecd	-0.047514725
186	0xbbc2525e	-0.005930229
187	0xbd196452	-0.03744919
188	0x3d1a42c8	0.037661344
189	0x3d633fd8	0.055480808
190	0x3d05295d	0.03251015
191	0xbd077b4a	-0.033076562
192	0x3c8cfc84	0.017210253
193	0x3a56fd3a	0.0008201186
194	0xbcb21a41	-0.021741034
195	0x3b8fa8b4	0.0043841247
196	0x3c26ab60	0.010172695
197	0x3cfc7f26	0.030822348
198	0xbd8238c1	-0.06358481
199	0xbcfbab1e	-0.030721243
200	0x3ca8eef6	0.020621758
201	0x3c4fdf04	0.012687448
202	0x3d2ead9f	0.042646047
203	0xbd4bbc57	-0.04974016
204	0x3d8d3999	0.068957515
205	0xbc09bedc	-0.008407321
206	0xbc16889f	-0.009187846
207	0x3c4c794f	0.012480094
208	0xbd33aad3	-0.043864083
209	0xbc12dcfd	-0.0089638205
210	0x3c24beff	0.010055303
211	0x3c41a2fb	0.011818643
212	0x3bb6b544	0.0055758078
213	0xbd598a6f	-0.053110536
214	0x3afe8d22	0.0019420723
215	0x3ca3a95f	0.019978223
216	0x3b9a95f5	0.0047175833
217	0xbd298904	-0.041390434
218	0xbd3df5b1	-0.046376888
219	0x3cbb64f2	0.022875283
220	0xbd3decee	-0.046368532
221	0xbcc45d65	-0.023970315
222	0xbd385f97	-0.045013037
223	0x3d075356	0.03303846
224	0xbcbc0597	-0.022951884
225	0x3c448ee5	0.011996959
226	0x3d441a7a	0.047876813
227	0xbc61c1e0	-0.013779134
228	0x3cbd5369	0.023111062
229	0x3bc16fde	0.005903228
230	0xbb969376	-0.0045952154
231	0x3b3d5233	0.0028888106
232	0xbca0f0cb	-0.019646069
233	0xbd5779e5	-0.052606482
234	0xbcbfc5b7	-0.023409707
235	0xbcfa71bd	-0.030571813
236	0x3c61f539	0.013791376
237	0xbd1c913d	-0.038224448
238	0x3cfa8b97	0.03058414
239	0xbd166abc	-0.036722884
240	0x3d061131	0.03273124
241	0x3d176b96	0.036967836
242	0xbc6bc817	-0.014390967
243	0xbcadad7c	-0.021200888
244	0x3cb50625	0.022097657
245	0x3d1c2949	0.03812531
246	0xbcad55e5	-0.021159122
247	0x3ca52199	0.020157622
248	0x3d08ac35	0.033367354
249	0xbcff4ef6	-0.031165581
250	0xbb9992a2	-0.0046866694
251	0xbcab5549	-0.02091469
252	0xbc84dcfd	-0.016218657
253	0xbc6f0c2f	-0.014590307
254	0xbc4e807d	-0.012603876
255	0x3d08ad7b	0.03336857

fc3.weight f4 [64, 256]
0	0x3d9cb571	0.07651795
1	0xbca7704b	-0.020439288
2	0x3db0aa7b	0.086262666
3	0xbd022835	-0.031776626
4	0x3d07979a	0.033103563
5	0x3d61724f	0.055040654
6	0xbd435e1c	-0.04769717
7	0xbd75aa9a	-0.05997715
8	0xbd0428d4	-0.0322655
9	0xbd5ca616	-0.05386933
10	0x3da64a79	0.08119673
11	0xbc3ecafb	-0.011645074
12	0xbd4162aa	-0.047213234
13	0xb9df5114	-0.00042594282
14	0xbcdcb090	-0.02693966
15	0x3bded3b2	0.0068001384
16	0x3d9c37ad	0.07627807
17	0x3cd50449	0.02600302
18	0x3de1026a	0.109867886
19	0xbd6fdd18	-0.05856046
20	0x3db1b3eb	0.08676895
21	0x3cf289e5	0.029606769
22	0x3cfdbb2f	0.030973045
23	0x3d4f879b	0.050666433
24	0x3d6ff88e	0.05858665
25	0xbd19a463	-0.037510287
26	0xbc9c22e7	-0.019059611
27	0x3ae80d09	0.001770408
28	0x3dd5b93a	0.1043572
29	0x3b2bd86c	0.0026221527
30	0xbcca699a	-0.024708558
31	0xbd1fa81d	-0.038978685
32	0xbc54ab90	-0.012980357
33	0x3da4a0a1	0.0803845
34	0xba972429	-0.0011531162
35	0xbcba859d	-0.02276879
36	0x3d885946	0.066576526
37	0xbd87fc8c	-0.06639966
38	0x3d96183a	0.073288396
39	0xbcd1a050	-0.025589138
40	0x3d1de8f7	0.03855225
41	0x3c544ba2	0.012957485
42	0xba52ce5e	-0.00080416154
43	0xbb2fb45e	-0.0026810388
44	0x3d6e7562	0.058217414
45	0xbcdf2abc	-0.027242057
46	0x3db84360	0.08997226
47	0x3d5e2974	0.05423875
48	0xbd44a405	-0.048007984
49	0xbd1fcf41	-0.039016012
50	0x3d8316c0	0.064008236
51	0xbc6320f6	-0.013862839
52	0x3d85e0f1	0.06537045
53	0xbc95a875	-0.018268803
54	0x3d82d314	0.06387916
55	0xbd3309e6	-0.04371061
56	0x3dfafa6c	0.122547954
57	0xbd64c7f1	-0.05585474
58	0xbe06fd34	-0.13182527
59	0x3d8d2e3b	0.068935834
60	0x3d57d468	0.0526928
61	0x3c8c1872	0.0171015
62	0xbc0aab61	-0.0084637115
63	0x3ba0a2d2	0.004902222
64	0x3c737042	0.014858307
65	0x3dd4f3c7	0.10398059
66	0x3d818a65	0.06325225
67	0xbd82f6cb	-0.06394728
68	0x3cecb56b	0.0288951
69	0x3c8cfd8c	0.017210744
70	0x3d4dea2a	0.050272144
71	0xbaf2da49	-0.0018528189
72	0x3c4440ac	0.01197831
73	0xbb75756b	-0.003745402
74	0x3cd213d7	0.025644226
75	0x3d4f9e4e	0.05068808
76	0xbe0234c7	-0.12715445
77	0xbce60004	-0.02807618
78	0x3d64a2ff	0.055819508
79	0xbd4cec9e	-0.050030343
80	0x3d91a06e	0.07110678
81	0xbca184cd	-0.019716645
82	0xbda72a77	-0.081623964
83	0x3c2de417	0.010613463
84	0xbd963eb3	-0.07336178
85	0xbd934b7a	-0.071921304
86	0x3d6aad57	0.057294216
87	0x3cd94512	0.026522193
88	0x3d19c5f6	0.037542306
89	0x3c3cfffb	0.01153564
90	0xbcb1da40	-0.021710515
91	0xbd721ef0	-0.059111536
92	0xbd0e485a	-0.03473697
93	0x3dadb7c6	0.084823176
94	0x3dbf064d	0.09327374
95	0x3cdb277e	0.02675223
96	0x3cfd27dd	0.030902797
97	0xbd168765	-0.036750216
98	0x3d683d2b	0.05669896
99	0xbbad8f5f	-0.005296632
100	0x3cc11a59	0.023572134
101	0x3c894632	0.016757105
102	0xbd138da1	-0.03602374
103	0xbd0313bf	-0.032001253
104	0xbc90b878	-0.017666087
105	0xbc52defc	-0.012870546
106	0x3d7fef73	0.062484216
107	0x3d6d2158	0.057893127
108	0x3cc8608c	0.0244601
109	0xbd474ec9	-0.04865912
110	0x3cf8c7ef	0.030368773
111	0xbd4fe03d	-0.05075096
112	0x3dde6b34	0.10860291
113	0x3c9acbd8	0.018896028
114	0xbd17dd3d	-0.037076224
115	0x3ceecd47	0.029150618
116	0x3cea0452	0.028566513
117	0x3d143ac8	0.03618887
118	0x3db54d71	0.088526614
119	0xbd462fb2	-0.04838533
120	0x3cc23a9f	0.023709593
121	0xbb2afc94	-0.002609049
122	0xbda64d16	-0.08120172
123	0xbd3058a9	-0.043053303
124	0xbc16671d	-0.009179858
125	0xbcf4b210	-0.029870063
126	0xbd865e86	-0.06560998
127	0x3d330fad	0.04371612
128	0x3d41ddea	0.047330774
129	0x3ddb6391	0.1071235
130	0x3d7d883c	0.0618975
131	0xbde8669b	-0.113476954
132	0xbc769147	-0.015049285
133	0xbb5e5fe3	-0.0033931665
134	0xbd67bf44	-0.05657889
135	0x3d3f1ba3	0.046657216
136	0x3adae3fa	0.0016700022
137	0x3ccbd853	0.024883425
138	0xbc77c903	-0.0151236085
139	0x3dde0762	0.10841252
140	0x3d2b26bd	0.04178499
141	0x3d81714a	0.06320436
142	0xbd45f4e6	-0.048329256
143	0x3d0e2fd9	0.0347136
144	0xbd281138	-0.041032046
145	0x3d386b8c	0.04502444
146	0xbca576db	-0.020198276
147	0x3dd07ce7	0.10180073
148	0x3cad2513	0.021135842
149	0xbd34a84a	-0.044105805
150	0x3bce2135	0.0062905797
151	0x3c8c790b	0.017147562
152	0x3dcaefed	0.099090435
153	0x3d3bf61b	0.045889
154	0x3d05ad8b	0.032636207
155	0x3c8c068d	0.017092967
156	0x3ca43e3b	0.020049205
157	0xbdcf6132	-0.101259604
158	0xbc0ab25b	-0.008465375
159	0xbc16e2ba	-0.009209329
160	0x3d3f075a	0.04663787
161	0xbd3f3082	-0.04667712
162	0xbd7e0872	-0.062019773
163	0x3ca332d5	0.0199217
164	0xbdb0f478	-0.08640379
165	0xb9fbebe2	-0.00048050197
166	0x3cec481e	0.028842982
167	0xb9a71d26	-0.0003187444
168	0xbdad7d32	-0.08471145
169	0x3c4d09f0	0.012514576
170	0xbcfde452	-0.03099266
171	0x3d2c21be	0.042024367
172	0xbd021cc3	-0.03176571
173	0xbd311f4a	-0.04324273
174	0x3c719be9	0.0147466445
175	0x3d4d0151	0.050050084
176	0x3d01b24b	0.031664174
177	0xbd6ddc2e	-0.058071308
178	0x3dcc32c0	0.09970617
179	0xbddecb48	-0.108786166
180	0x3be3e815	0.0069551566
181	0xbca0b2e8	-0.01961656
182	0x3cc0c47e	0.023531195
183	0xba6f1d2e	-0.00091214746
184	0x3d1d6016	0.038421713
185	0x3d962e16	0.07333009
186	0x3d8e8f91	0.06960977
187	0xbd5100a0	-0.051025987
188	0xbd67061a	-0.056402303
189	0x3c10fcfc	0.008849379
190	0xbcb34fe6	-0.021888684
191	0x3b9d938a	0.004808848
192	0x3d2c2a53	0.04203255
193	0xbc49717f	-0.012295126
194	0x3d39e22e	0.045381717
195	0xbd0a9f62	-0.033843406
196	0x3cd4cb50	0.025975853
197	0x3d53fd4d	0.05175524
198	0xbd47d84b	-0.048790257
199	0x3d136831	0.035988037
200	0x3c06bb59	0.008223378
201	0x3c6dff97	0.014526269
202	0xbcb2674e	-0.021777775
203	0x3daf42d2	0.08557667
204	0x3dc63e4a	0.096798494
205	0x3cf54b38	0.029943094
206	0x3cc7196e	0.024304118
207	0x3d508deb	0.050916594
208	0xbd0128e3	-0.031533133
209	0xbd6a008f	-0.05712944
210	0x3bfc4875	0.0076990672
211	0x3bc6cfb2	0.0060672397
212	0x3d052407	0.03250506
213	0x3d9b443d	0.07581375
214	0xbd2ca439	-0.042148802
215	0x3dcb07cf	0.09913599
216	0xbd4824f4	-0.048863366
217	0xbc3a5634	-0.0113730915
218	0x3cf3db75	0.029767731
219	0x3d6f0972	0.058358617
220	0xbd1fada2	-0.03898395
221	0x3dcec313	0.10095801
222	0xbb9eef75	-0.004850323
223	0xbd30f99b	-0.043206792
224	0xbced0f82	-0.028938059
225	0xbd688808	-0.056770355
226	0xbe123d17	-0.14281116
227	0x3d1a3cbb	0.037655573
228	0xbdf70b78	-0.12062734
229	0xbd1c1a20	-0.038110852
230	0x3dce5a1f	0.10075783
231	0x3d9d9343	0.076941036
232	0xbb88f176	-0.004179175
233	0xbd7b3c81	-0.061336998
234	0x3cc06d3a	0.023489583
235	0xba9db1d7	-0.001203115
236	0x3e0cc5df	0.13747357
237	0xbd812abd	-0.0630698
238	0x3cb1478e	0.021640565
239	0xbc883f68	-0.016631797
240	0x3e01eafe	0.12687299
241	0x3c231a23	0.009954962
242	0xbdf6f44f	-0.12058317
243	0xbcf12fa3	-0.02944166
244	0xbd9d24fe	-0.07673071
245	0xbb13716d	-0.0022498027
246	0x3d782e61	0.060591105
247	0xbcfc6f70	-0.030814856
248	0xbd709738	-0.058737963
249	0xbd6a0514	-0.05713375
250	0xbd0076ce	-0.0313633
251	0xbd360dfe	-0.044446938
252	0xbd184d59	-0.03718314
253	0xbd736638	-0.059423655
254	0x3d0d9a6a	0.03457109
255	0xbc23aebf	-0.009990393

fc3.bias f4 [64]
0	0x3d149db0	0.036283195
1	0xbbcb0d16	-0.0061966283
2	0xbc83f133	-0.016106224
3	0x3d11c212	0.03558547
4	0xbd449252	-0.047991104
5	0x3d8a249f	0.06745266
6	0x3d88b407	0.066749625
7	0x3d34ecad	0.044171024
8	0x3caecaf5	0.021337012
9	0xbc404ca3	-0.011737022
10	0xba1e8f5b	-0.00060485833
11	0x3d92cc22	0.071678415
12	0x3cf98023	0.030456608
13	0x3d0ef76a	0.03490392
14	0x3cb55bc2	0.02213848
15	0xbccadceb	-0.024763545
16	0x3d672e6f	0.056440767
17	0xbd2d5cf2	-0.042324968
18	0xbcb638c6	-0.022243869
19	0x3d0e4e70	0.034742773
20	0x3cd2c4ef	0.02572867
21	0x3c1d282c	0.009592097
22	0xbcf9f003	-0.030509954
23	0x3d8c60e5	0.06854419
24	0x3d7cfeea	0.061766542
25	0xbbb135c3	-0.00540802
26	0xbd2d419b	-0.042298894
27	0x3d379707	0.044821765
28	0x3d1310f2	0.035904832
29	0x3c8743e5	0.016511867
30	0xbd2d8f7d	-0.04237317
31	0xbd2d847c	-0.042362675
32	0xbbf15a58	-0.007365506
33	0xbb7fbc2d	-0.0039022074
34	0x3be2f5f7	0.006926294
35	0xbd6c48d7	-0.057686653
36	0x3d5a2b25	0.053263802
37	0xbac5683c	-0.0015060971
38	0x3b1af13b	0.002364232
39	0x3c278f2b	0.010227005
40	0xbcc89aa7	-0.024487806
41	0x3d4ef9f1	0.05053133
42	0xbc54b9b6	-0.01298373
43	0xbb25ee3a	-0.0025318996
44	0x3d3f052f	0.046635803
45	0xbd171d2f	-0.036893066
46	0xbc487a6e	-0.012236221
47	0x3d193840	0.03740716
48	0x3c0e9798	0.008703135
49	0xbd688389	-0.056766067
50	0xbd0a52a8	-0.033770233
51	0x3ab81b19	0.0014046162
52	0xbd4f79b1	-0.050653163
53	0xbd870e26	-0.065944955
54	0xbd120aa5	-0.035654683
55	0x3db4b5e6	0.08823757
56	0x3c577301	0.013149978
57	0xbc630432	-0.013855981
58	0xbd0a4b6c	-0.033763334
59	0x3b08c005	0.0020866406
60	0xbd7cc98c	-0.061715648
61	0xbbef2564	-0.0072981585
62	0xbc0cf86c	-0.00860415
63	0xbcd65689	-0.02616431

mean.weight f4 [4, 64]
0	0xbdc3cdd0	-0.0956074
1	0x3deb3214	0.11484161
2	0xbe144cd9	-0.1448244
3	0xbdcab332	-0.0989746
4	0xbdce560a	-0.100750044
5	0xbd11d416	-0.03560265
6	0xbd9d5c9d	-0.0768368
7	0x3e20c7fb	0.15701286
8	0xbd98f511	-0.07468618
9	0xbe21544f	-0.15754817
10	0x3d0ca21d	0.03433429
11	0xbdb80acd	-0.08986435
12	0x3dd5207e	0.10406588
13	0xbcb48612	-0.022036586
14	0xbde2e13b	-0.110781156
15	0x3de9a0cb	0.11407622
16	0xbc48cec6	-0.01225633
17	0xbd8ca266	-0.068669125
18	0xbdc6edf0	-0.09713352
19	0xbd2ed1b7	-0.04268047
20	0x3e16fd32	0.14745024
21	0xbd834ef5	-0.06411544
22	0xbc89fa2f	-0.01684293
23	0x3d84b7f0	0.06480396
24	0xbcc8471b	-0.024447968
25	0x3d41856f	0.047246393
26	0x3d596c52	0.053081818
27	0x3dcae3d1	0.09906734
28	0x3d9dc11d	0.07702849
29	0xbe075af0	-0.13218284
30	0x3dccba40	0.09996462
31	0x3d024f6d	0.031814028
32	0x3d2d846a	0.042362608
33	0xbd2cff55	-0.04223569
34	0xbc588148	-0.013214417
35	0x3ccdb348	0.025109902
36	0xbdadce45	-0.084866084
37	0x3d97b689	0.07407863
38	0x3cafeb16	0.021474402
39	0x3e2a5495	0.16633828
40	0x3cb9af54	0.02266661
41	0xbd609a40	-0.054834604
42	0xbcc02b6f	-0.02345821
43	0xbcb66995	-0.022267142
44	0x3e20917f	0.15680502
45	0x3d3c133e	0.04591679
46	0xbdbf402e	-0.09338413
47	0x3db039a5	0.08604745
48	0xbdb29f4e	-0.08721791
49	0x3ddcaecb	0.107755266
50	0xbc5b73fe	-0.013394354
51	0x38b384ac	8.560097e-05
52	0x3d0668e0	0.03281486
53	0xbda9f35e	-0.08298372
54	0x3d96fe1b	0.073726855
55	0xbdfef21c	-0.124485224
56	0x3e0be91a	0.1366314
57	0xbdc4d2cb	-0.09610518
58	0x3b64e084	0.003492386
59	0xbbebe33c	-0.0071987193
60	0x3dd40f9f	0.10354542
61	0x38a540c3	7.879876e-05
62	0x3d884a24	0.06654766
63	0xbd76d6c8	-0.060263425
64	0x3e527a55	0.20554478
65	0xbe3dd5aa	-0.18538538
66	0xbe0092b4	-0.12555963
67	0x3e074409	0.13209547
68	0x3d41b1b7	0.047288623
69	0xbe2a6194	-0.16638786
70	0x3e5d8520	0.21632814
71	0x3ca667fd	0.020313257
72	0xbdc8c607	-0.09803396
73	0xbc74592b	-0.014913837
74	0xbdd88311	-0.10571874
75	0x3e229f89	0.1588117
76	0xbd047bcc	-0.032344624
77	0xbdf89d6f	-0.12139403
78	0xbc2ba836	-0.010477116
79	0xbbe6ea1b	-0.0070469505
80	0x3bc874ad	0.0061174245
81	0xbdeeb3d8	-0.11655396
82	0x3dc698ce	0.09697114
83	0xbdfdc898	-0.12391776
84	0xbb500b5f	-0.003174506
85	0x3e6ddc01	0.23228456
86	0xbd4dca57	-0.050241794
87	0xbd8fe2da	-0.070256904
88	0x3e301466	0.17195281
89	0xbdcc18b8	-0.09965652
90	0x3b24b329	0.0025131202
91	0x3d8e18a8	0.069382966
92	0xbe5904cb	-0.21193235
93	0xbdeb59b2	-0.114917174
94	0x3e0405e2	0.12892869
95	0x3e887be1	0.26657012
96	0xbe431d58	-0.19054163
97	0xbc7e0616	-0.015504381
98	0x3cdd206a	0.026992995
99	0x3cd251ea	0.025673825
100	0xbcdf7981	-0.027279617
101	0x3dfd5064	0.12368849
102	0x3ea2e5fc	0.3181609
103	0xbd1baef3	-0.03800864
104	0x3d20489e	0.039131753
105	0xbe2b82d5	-0.16749127
106	0x3cdb1f6b	0.02674838
107	0xbd6845d2	-0.05670721
108	0x3e05fd1c	0.13084835
109	0xbdd1f9d2	-0.102527276
110	0xbde3a3a8	-0.11115199
111	0xbc7ade46	-0.015311783
112	0xbd028175	-0.03186174
113	0xbd1df516	-0.03856381
114	0xbcb6fc3e	-0.022337075
115	0x3e3006cb	0.17190091
116	0x3d831152	0.06399788
117	0x3c4d92bf	0.012547194
118	0x3e378cf6	0.17924866
119	0x3db41495	0.08792988
120	0xbe445625	-0.19173487
121	0x3d35f9fa	0.04442785
122	0xbdc9d319	-0.09854717
123	0xbded7bde	-0.115958914
124	0xbca9ba1c	-0.020718627
125	0xbe50284d	-0.20327874
126	0x3d0a048b	0.03369574
127	0x3de31512	0.11088003
128	0x3d232141	0.039826635
129	0xbe8db1d0	-0.27674723
130	0x3e41b693	0.18917303
131	0x3c949b8d	0.018140579
132	0xbd7baefa	-0.061446168
133	0x3dace8e4	0.08442858
134	0x3e3d98de	0.18515345
135	0x3cfa03e4	0.030519433
136	0x3e1188f3	0.14212398
137	0x3d785b4f	0.060633954
138	0x3d5f32a9	0.054491673
139	0x3e14e3df	0.14540051
140	0xbe3de85b	-0.18545668
141	0xbe12a52b	-0.14320819
142	0x3d0d913f	0.034562346
143	0x3d04855f	0.032353755
144	0x3e8ebbbc	0.27877605
145	0xbd2f3514	-0.04277523
146	0xbd1718bb	-0.03688882
147	0xbd34b2fc	-0.044116005
148	0x3d294ace	0.041331105
149	0xbd519dad	-0.051175762
150	0xbd9b3eaa	-0.075803116
151	0x3d7579c1	0.059930567
152	0x3e54de46	0.20787916
153	0xbde17d15	-0.11010186
154	0xbde05d4a	-0.109552935
155	0xbd02bf10	-0.031920493
156	0xbe3a92f9	-0.18220128
157	0xbcdeea4b	-0.027211329
158	0x3c2f745f	0.010708897
159	0xbd4b7c51	-0.049679104
160	0xbd60d163	-0.054887187
161	0x3df8cb0d	0.12148104
162	0x3e318863	0.17337184
163	0x3e5858aa	0.21127573
164	0xbd41ab71	-0.04728264
165	0xbd961c55	-0.07329623
166	0x3c51b823	0.012800249
167	0xbdac4161	-0.084109075
168	0x3dc46038	0.09588665
169	0x3dc663bb	0.09686991
170	0x3d967507	0.0734654
171	0x3e271ee0	0.16320372
172	0x3d84286e	0.06453024
173	0x3cd11b60	0.025525749
174	0x3d5d7358	0.05406508
175	0x3e5866b3	0.21132927
176	0xbdc17a71	-0.09447182
177	0xbdc355b7	-0.09537833
178	0x3d1e2ab2	0.038614936
179	0x3e3f379f	0.18673562
180	0x3d20b6fb	0.039237004
181	0xbd96d467	-0.07364731
182	0xbe1e5835	-0.15463336
183	0x3dde3142	0.10849239
184	0xbde8d49e	-0.113686785
185	0x3e1e2fa8	0.15447867
186	0xbc837072	-0.016044829
187	0xbddabf05	-0.10680965
188	0x3d82cd5d	0.06386826
189	0xbe14180b	-0.14462297
190	0xbd61aeea	-0.05509845
191	0xbdeec0da	-0.11657877
192	0xbc145bc4	-0.009055082
193	0xbd85e8c3	-0.065385364
194	0xbd453d87	-0.04815438
195	0xbe38085a	-0.17971936
196	0x3d3a968d	0.045553733
197	0x3e286433	0.16444473
198	0x3df8150a	0.12113388
199	0xbe32884c	-0.17434806
200	0x3d21845b	0.039432865
201	0xbe4623b1	-0.19349553
202	0x3dc5692b	0.096392
203	0xbcb8e180	-0.022568464
204	0x3d83de46	0.0643888
205	0xbda81528	-0.0820716
206	0xbe3c475f	-0.18386601
207	0x3d63b0ff	0.05558872
208	0x3b5a1e7e	0.0033282335
209	0xbbe98f10	-0.00712765
210	0x3d0dae64	0.03459014
211	0xbdfa31f2	-0.122165576
212	0xbda359c5	-0.079761066
213	0xbdedc6bf	-0.116101734
214	0x3d91afa7	0.07113581
215	0x3df3faea	0.119130924
216	0xbd84a9fa	-0.06477733
217	0x3c8c6827	0.017139507
218	0x3da49da5	0.08037881
219	0x3dda23cb	0.10651358
220	0xbd90fc77	-0.07079404
221	0x3db0dfd3	0.08636441
222	0x3dcea975	0.10090915
223	0x3dadc996	0.08485715
224	0x3d9246d1	0.071424134
225	0xbe483ccf	-0.19554447
226	0xbe364730	-0.17800593
227	0x3ddebec5	0.1087623
228	0xbd18c818	-0.0373002
229	0x3dfa83b8	0.122321546
230	0x3cdfd376	0.027322512
231	0xbdebd0fd	-0.11514471
232	0xbb4d6884	-0.0031342814
233	0xbd4ad278	-0.049517125
234	0x3e1a9e18	0.1509937
235	0x3debe9ff	0.115192406
236	0x3d867992	0.065661564
237	0x3d85d227	0.06534224
238	0x3cc6f2c0	0.024285674
239	0xbd4af10b	-0.049546283
240	0x3cbe5938	0.023235902
241	0x3e03a978	0.12857616
242	0x3cd61cc7	0.026136769
243	0x3dba2758	0.090895355
244	0x3dd441de	0.10364126
245	0x3d6bb497	0.05754527
246	0xbc151502	-0.009099247
247	0x3df53fab	0.11975034
248	0x3d2d310d	0.042283107
249	0x3d9f1053	0.077667855
250	0x3c945d87	0.018111004
251	0x3dce5d71	0.10076416
252	0x3dc705c6	0.09717898
253	0xbe0f5f41	-0.1400118
254	0x3dab8a86	0.083760306
255	0x3c2fdc3e	0.010733662

mean.bias f4 [4]
0	0x3e064329	0.13111557
1	0xbdd08aa7	-0.10182696
2	0x3db5a26e	0.08868872
3	0xbc34a0b9	-0.011024647
